…
    checkpoint_print: 200
    E_decay: 0.999
    G_optimizer_reuse: True
    G_param_strict: True
    E_param_strict: True
    F_feature_layer: 34
    F_weights: 1.0
    F_lossfn_type: l1
    F_use_input_norm: True
    F_use_range_norm: False
  ]
  opt_path: options/train_usrnet_ST.json
  is_train: True
  find_unused_parameters: True
  dist: False
  num_gpu: 1
  rank: 0
  world_size: 1

22-05-10 21:41:21.705 : Number of train images: 3,450, iters: 1,150
22-05-10 21:41:24.707 : 
Networks name: USRNet_ST
Params number: 3624844
Net structure:
USRNet_ST(
  (d): DataNet()
  (p): ResUNet(
    (m_head): Conv2d(4, 16, kernel_size=(3, 3), stride=(1, 1), padding=(1, 1), bias=False)
    (m_down1): Sequential(
      (0): ResBlock(
        (res): Sequential(
          (0): Conv2d(16, 16, kernel_size=(3, 3), stride=(1, 1), padding=(1, 1), bias=False)
          (1): ReLU(inplace=True)
          (2): Conv2d(16, 16, kernel_size=(3, 3), stride=(1, 1), padding=(1, 1), bias=False)
        )
      )
      (1): ResBlock(
        (res): Sequential(
          (0): Conv2d(16, 16, kernel_size=(3, 3), stride=(1, 1), padding=(1, 1), bias=False)
          (1): ReLU(inplace=True)
          (2): Conv2d(16, 16, kernel_size=(3, 3), stride=(1, 1), padding=(1, 1), bias=False)
        )
      )
      (2): Conv2d(16, 32, kernel_size=(2, 2), stride=(2, 2), bias=False)
    )
    (m_down2): Sequential(
      (0): ResBlock(
        (res): Sequential(
          (0): Conv2d(32, 32, kernel_size=(3, 3), stride=(1, 1), padding=(1, 1), bias=False)
          (1): ReLU(inplace=True)
          (2): Conv2d(32, 32, kernel_size=(3, 3), stride=(1, 1), padding=(1, 1), bias=False)
        )
      )
      (1): ResBlock(
        (res): Sequential(
          (0): Conv2d(32, 32, kernel_size=(3, 3), stride=(1, 1), padding=(1, 1), bias=False)
          (1): ReLU(inplace=True)
          (2): Conv2d(32, 32, kernel_size=(3, 3), stride=(1, 1), padding=(1, 1), bias=False)
        )
      )
      (2): Conv2d(32, 64, kernel_size=(2, 2), stride=(2, 2), bias=False)
    )
    (m_down3): Sequential(
      (0): ResBlock(
        (res): Sequential(
          (0): Conv2d(64, 64, kernel_size=(3, 3), stride=(1, 1), padding=(1, 1), bias=False)
          (1): ReLU(inplace=True)
          (2): Conv2d(64, 64, kernel_size=(3, 3), stride=(1, 1), padding=(1, 1), bias=False)
        )
      )
      (1): ResBlock(
        (res): Sequential(
          (0): Conv2d(64, 64, kernel_size=(3, 3), stride=(1, 1), padding=(1, 1), bias=False)
          (1): ReLU(inplace=True)
          (2): Conv2d(64, 64, kernel_size=(3, 3), stride=(1, 1), padding=(1, 1), bias=False)
        )
      )
      (2): Conv2d(64, 64, kernel_size=(2, 2), stride=(2, 2), bias=False)
    )
    (sw_res1): SwinIR(
      (conv_first): Conv2d(64, 64, kernel_size=(3, 3), stride=(1, 1), padding=(1, 1))
      (patch_embed): PatchEmbed(
        (norm): LayerNorm((64,), eps=1e-05, elementwise_affine=True)
      )
      (patch_unembed): PatchUnEmbed()
      (pos_drop): Dropout(p=0.0, inplace=False)
      (layers): ModuleList(
        (0): RSTB(
          (residual_group): BasicLayer(
            dim=64, input_resolution=(12, 12), depth=6
            (blocks): ModuleList(
              (0): SwinTransformerBlock(
                dim=64, input_resolution=(12, 12), num_heads=4, window_size=3, shift_size=0, mlp_ratio=2
                (norm1): LayerNorm((64,), eps=1e-05, elementwise_affine=True)
                (attn): WindowAttention(
                  dim=64, window_size=(3, 3), num_heads=4
                  (qkv): Linear(in_features=64, out_features=192, bias=True)
                  (attn_drop): Dropout(p=0.0, inplace=False)
                  (proj): Linear(in_features=64, out_features=64, bias=True)
                  (proj_drop): Dropout(p=0.0, inplace=False)
                  (softmax): Softmax(dim=-1)
                )
                (drop_path): Identity()
                (norm2): LayerNorm((64,), eps=1e-05, elementwise_affine=True)
                (mlp): Mlp(
                  (fc1): Linear(in_features=64, out_features=128, bias=True)
                  (act): GELU()
                  (fc2): Linear(in_features=128, out_features=64, bias=True)
                  (drop): Dropout(p=0.0, inplace=False)
                )
              )
              (1): SwinTransformerBlock(
                dim=64, input_resolution=(12, 12), num_heads=4, window_size=3, shift_size=1, mlp_ratio=2
                (norm1): LayerNorm((64,), eps=1e-05, elementwise_affine=True)
                (attn): WindowAttention(
                  dim=64, window_size=(3, 3), num_heads=4
                  (qkv): Linear(in_features=64, out_features=192, bias=True)
                  (attn_drop): Dropout(p=0.0, inplace=False)
                  (proj): Linear(in_features=64, out_features=64, bias=True)
                  (proj_drop): Dropout(p=0.0, inplace=False)
                  (softmax): Softmax(dim=-1)
                )
                (drop_path): DropPath()
                (norm2): LayerNorm((64,), eps=1e-05, elementwise_affine=True)
                (mlp): Mlp(
                  (fc1): Linear(in_features=64, out_features=128, bias=True)
                  (act): GELU()
                  (fc2): Linear(in_features=128, out_features=64, bias=True)
                  (drop): Dropout(p=0.0, inplace=False)
                )
              )
              (2): SwinTransformerBlock(
                dim=64, input_resolution=(12, 12), num_heads=4, window_size=3, shift_size=0, mlp_ratio=2
                (norm1): LayerNorm((64,), eps=1e-05, elementwise_affine=True)
                (attn): WindowAttention(
                  dim=64, window_size=(3, 3), num_heads=4
                  (qkv): Linear(in_features=64, out_features=192, bias=True)
                  (attn_drop): Dropout(p=0.0, inplace=False)
                  (proj): Linear(in_features=64, out_features=64, bias=True)
                  (proj_drop): Dropout(p=0.0, inplace=False)
                  (softmax): Softmax(dim=-1)
                )
                (drop_path): DropPath()
                (norm2): LayerNorm((64,), eps=1e-05, elementwise_affine=True)
                (mlp): Mlp(
                  (fc1): Linear(in_features=64, out_features=128, bias=True)
                  (act): GELU()
                  (fc2): Linear(in_features=128, out_features=64, bias=True)
                  (drop): Dropout(p=0.0, inplace=False)
                )
              )
              (3): SwinTransformerBlock(
                dim=64, input_resolution=(12, 12), num_heads=4, window_size=3, shift_size=1, mlp_ratio=2
                (norm1): LayerNorm((64,), eps=1e-05, elementwise_affine=True)
                (attn): WindowAttention(
                  dim=64, window_size=(3, 3), num_heads=4
                  (qkv): Linear(in_features=64, out_features=192, bias=True)
                  (attn_drop): Dropout(p=0.0, inplace=False)
                  (proj): Linear(in_features=64, out_features=64, bias=True)
                  (proj_drop): Dropout(p=0.0, inplace=False)
                  (softmax): Softmax(dim=-1)
                )
                (drop_path): DropPath()
                (norm2): LayerNorm((64,), eps=1e-05, elementwise_affine=True)
                (mlp): Mlp(
                  (fc1): Linear(in_features=64, out_features=128, bias=True)
                  (act): GELU()
                  (fc2): Linear(in_features=128, out_features=64, bias=True)
                  (drop): Dropout(p=0.0, inplace=False)
                )
              )
              (4): SwinTransformerBlock(
                dim=64, input_resolution=(12, 12), num_heads=4, window_size=3, shift_size=0, mlp_ratio=2
                (norm1): LayerNorm((64,), eps=1e-05, elementwise_affine=True)
                (attn): WindowAttention(
                  dim=64, window_size=(3, 3), num_heads=4
                  (qkv): Linear(in_features=64, out_features=192, bias=True)
                  (attn_drop): Dropout(p=0.0, inplace=False)
                  (proj): Linear(in_features=64, out_features=64, bias=True)
                  (proj_drop): Dropout(p=0.0, inplace=False)
                  (softmax): Softmax(dim=-1)
                )
                (drop_path): DropPath()
                (norm2): LayerNorm((64,), eps=1e-05, elementwise_affine=True)
                (mlp): Mlp(
                  (fc1): Linear(in_features=64, out_features=128, bias=True)
                  (act): GELU()
                  (fc2): Linear(in_features=128, out_features=64, bias=True)
                  (drop): Dropout(p=0.0, inplace=False)
                )
              )
              (5): SwinTransformerBlock(
                dim=64, input_resolution=(12, 12), num_heads=4, window_size=3, shift_size=1, mlp_ratio=2
                (norm1): LayerNorm((64,), eps=1e-05, elementwise_affine=True)
                (attn): WindowAttention(
                  dim=64, window_size=(3, 3), num_heads=4
                  (qkv): Linear(in_features=64, out_features=192, bias=True)
                  (attn_drop): Dropout(p=0.0, inplace=False)
                  (proj): Linear(in_features=64, out_features=64, bias=True)
                  (proj_drop): Dropout(p=0.0, inplace=False)
                  (softmax): Softmax(dim=-1)
                )
                (drop_path): DropPath()
                (norm2): LayerNorm((64,), eps=1e-05, elementwise_affine=True)
                (mlp): Mlp(
                  (fc1): Linear(in_features=64, out_features=128, bias=True)
                  (act): GELU()
                  (fc2): Linear(in_features=128, out_features=64, bias=True)
                  (drop): Dropout(p=0.0, inplace=False)
                )
              )
            )
          )
          (conv): Conv2d(64, 64, kernel_size=(3, 3), stride=(1, 1), padding=(1, 1))
          (patch_embed): PatchEmbed()
          (patch_unembed): PatchUnEmbed()
        )
        (1): RSTB(
          (residual_group): BasicLayer(
            dim=64, input_resolution=(12, 12), depth=6
            (blocks): ModuleList(
              (0): SwinTransformerBlock(
                dim=64, input_resolution=(12, 12), num_heads=4, window_size=3, shift_size=0, mlp_ratio=2
                (norm1): LayerNorm((64,), eps=1e-05, elementwise_affine=True)
                (attn): WindowAttention(
                  dim=64, window_size=(3, 3), num_heads=4
                  (qkv): Linear(in_features=64, out_features=192, bias=True)
                  (attn_drop): Dropout(p=0.0, inplace=False)
                  (proj): Linear(in_features=64, out_features=64, bias=True)
                  (proj_drop): Dropout(p=0.0, inplace=False)
                  (softmax): Softmax(dim=-1)
                )
                (drop_path): DropPath()
                (norm2): LayerNorm((64,), eps=1e-05, elementwise_affine=True)
                (mlp): Mlp(
                  (fc1): Linear(in_features=64, out_features=128, bias=True)
                  (act): GELU()
                  (fc2): Linear(in_features=128, out_features=64, bias=True)
                  (drop): Dropout(p=0.0, inplace=False)
                )
              )
              (1): SwinTransformerBlock(
                dim=64, input_resolution=(12, 12), num_heads=4, window_size=3, shift_size=1, mlp_ratio=2
                (norm1): LayerNorm((64,), eps=1e-05, elementwise_affine=True)
                (attn): WindowAttention(
                  dim=64, window_size=(3, 3), num_heads=4
                  (qkv): Linear(in_features=64, out_features=192, bias=True)
                  (attn_drop): Dropout(p=0.0, inplace=False)
                  (proj): Linear(in_features=64, out_features=64, bias=True)
                  (proj_drop): Dropout(p=0.0, inplace=False)
                  (softmax): Softmax(dim=-1)
                )
                (drop_path): DropPath()
                (norm2): LayerNorm((64,), eps=1e-05, elementwise_affine=True)
                (mlp): Mlp(
                  (fc1): Linear(in_features=64, out_features=128, bias=True)
                  (act): GELU()
                  (fc2): Linear(in_features=128, out_features=64, bias=True)
                  (drop): Dropout(p=0.0, inplace=False)
                )
              )
              (2): SwinTransformerBlock(
                dim=64, input_resolution=(12, 12), num_heads=4, window_size=3, shift_size=0, mlp_ratio=2
                (norm1): LayerNorm((64,), eps=1e-05, elementwise_affine=True)
                (attn): WindowAttention(
                  dim=64, window_size=(3, 3), num_heads=4
                  (qkv): Linear(in_features=64, out_features=192, bias=True)
                  (attn_drop): Dropout(p=0.0, inplace=False)
                  (proj): Linear(in_features=64, out_features=64, bias=True)
                  (proj_drop): Dropout(p=0.0, inplace=False)
                  (softmax): Softmax(dim=-1)
                )
                (drop_path): DropPath()
                (norm2): LayerNorm((64,), eps=1e-05, elementwise_affine=True)
                (mlp): Mlp(
                  (fc1): Linear(in_features=64, out_features=128, bias=True)
                  (act): GELU()
                  (fc2): Linear(in_features=128, out_features=64, bias=True)
                  (drop): Dropout(p=0.0, inplace=False)
                )
              )
              (3): SwinTransformerBlock(
                dim=64, input_resolution=(12, 12), num_heads=4, window_size=3, shift_size=1, mlp_ratio=2
                (norm1): LayerNorm((64,), eps=1e-05, elementwise_affine=True)
                (attn): WindowAttention(
                  dim=64, window_size=(3, 3), num_heads=4
                  (qkv): Linear(in_features=64, out_features=192, bias=True)
                  (attn_drop): Dropout(p=0.0, inplace=False)
                  (proj): Linear(in_features=64, out_features=64, bias=True)
                  (proj_drop): Dropout(p=0.0, inplace=False)
                  (softmax): Softmax(dim=-1)
                )
                (drop_path): DropPath()
                (norm2): LayerNorm((64,), eps=1e-05, elementwise_affine=True)
                (mlp): Mlp(
                  (fc1): Linear(in_features=64, out_features=128, bias=True)
                  (act): GELU()
                  (fc2): Linear(in_features=128, out_features=64, bias=True)
                  (drop): Dropout(p=0.0, inplace=False)
                )
              )
              (4): SwinTransformerBlock(
                dim=64, input_resolution=(12, 12), num_heads=4, window_size=3, shift_size=0, mlp_ratio=2
                (norm1): LayerNorm((64,), eps=1e-05, elementwise_affine=True)
                (attn): WindowAttention(
                  dim=64, window_size=(3, 3), num_heads=4
                  (qkv): Linear(in_features=64, out_features=192, bias=True)
                  (attn_drop): Dropout(p=0.0, inplace=False)
                  (proj): Linear(in_features=64, out_features=64, bias=True)
                  (proj_drop): Dropout(p=0.0, inplace=False)
                  (softmax): Softmax(dim=-1)
                )
                (drop_path): DropPath()
                (norm2): LayerNorm((64,), eps=1e-05, elementwise_affine=True)
                (mlp): Mlp(
                  (fc1): Linear(in_features=64, out_features=128, bias=True)
                  (act): GELU()
                  (fc2): Linear(in_features=128, out_features=64, bias=True)
                  (drop): Dropout(p=0.0, inplace=False)
                )
              )
              (5): SwinTransformerBlock(
                dim=64, input_resolution=(12, 12), num_heads=4, window_size=3, shift_size=1, mlp_ratio=2
                (norm1): LayerNorm((64,), eps=1e-05, elementwise_affine=True)
                (attn): WindowAttention(
                  dim=64, window_size=(3, 3), num_heads=4
                  (qkv): Linear(in_features=64, out_features=192, bias=True)
                  (attn_drop): Dropout(p=0.0, inplace=False)
                  (proj): Linear(in_features=64, out_features=64, bias=True)
                  (proj_drop): Dropout(p=0.0, inplace=False)
                  (softmax): Softmax(dim=-1)
                )
                (drop_path): DropPath()
                (norm2): LayerNorm((64,), eps=1e-05, elementwise_affine=True)
                (mlp): Mlp(
                  (fc1): Linear(in_features=64, out_features=128, bias=True)
                  (act): GELU()
                  (fc2): Linear(in_features=128, out_features=64, bias=True)
                  (drop): Dropout(p=0.0, inplace=False)
                )
              )
            )
          )
          (conv): Conv2d(64, 64, kernel_size=(3, 3), stride=(1, 1), padding=(1, 1))
          (patch_embed): PatchEmbed()
          (patch_unembed): PatchUnEmbed()
        )
        (2): RSTB(
          (residual_group): BasicLayer(
            dim=64, input_resolution=(12, 12), depth=6
            (blocks): ModuleList(
              (0): SwinTransformerBlock(
                dim=64, input_resolution=(12, 12), num_heads=4, window_size=3, shift_size=0, mlp_ratio=2
                (norm1): LayerNorm((64,), eps=1e-05, elementwise_affine=True)
                (attn): WindowAttention(
                  dim=64, window_size=(3, 3), num_heads=4
                  (qkv): Linear(in_features=64, out_features=192, bias=True)
                  (attn_drop): Dropout(p=0.0, inplace=False)
                  (proj): Linear(in_features=64, out_features=64, bias=True)
                  (proj_drop): Dropout(p=0.0, inplace=False)
                  (softmax): Softmax(dim=-1)
                )
                (drop_path): DropPath()
                (norm2): LayerNorm((64,), eps=1e-05, elementwise_affine=True)
                (mlp): Mlp(
                  (fc1): Linear(in_features=64, out_features=128, bias=True)
                  (act): GELU()
                  (fc2): Linear(in_features=128, out_features=64, bias=True)
                  (drop): Dropout(p=0.0, inplace=False)
                )
              )
              (1): SwinTransformerBlock(
                dim=64, input_resolution=(12, 12), num_heads=4, window_size=3, shift_size=1, mlp_ratio=2
                (norm1): LayerNorm((64,), eps=1e-05, elementwise_affine=True)
                (attn): WindowAttention(
                  dim=64, window_size=(3, 3), num_heads=4
                  (qkv): Linear(in_features=64, out_features=192, bias=True)
                  (attn_drop): Dropout(p=0.0, inplace=False)
                  (proj): Linear(in_features=64, out_features=64, bias=True)
                  (proj_drop): Dropout(p=0.0, inplace=False)
                  (softmax): Softmax(dim=-1)
                )
                (drop_path): DropPath()
                (norm2): LayerNorm((64,), eps=1e-05, elementwise_affine=True)
                (mlp): Mlp(
                  (fc1): Linear(in_features=64, out_features=128, bias=True)
                  (act): GELU()
                  (fc2): Linear(in_features=128, out_features=64, bias=True)
                  (drop): Dropout(p=0.0, inplace=False)
                )
              )
              (2): SwinTransformerBlock(
                dim=64, input_resolution=(12, 12), num_heads=4, window_size=3, shift_size=0, mlp_ratio=2
                (norm1): LayerNorm((64,), eps=1e-05, elementwise_affine=True)
                (attn): WindowAttention(
                  dim=64, window_size=(3, 3), num_heads=4
                  (qkv): Linear(in_features=64, out_features=192, bias=True)
                  (attn_drop): Dropout(p=0.0, inplace=False)
                  (proj): Linear(in_features=64, out_features=64, bias=True)
                  (proj_drop): Dropout(p=0.0, inplace=False)
                  (softmax): Softmax(dim=-1)
                )
                (drop_path): DropPath()
                (norm2): LayerNorm((64,), eps=1e-05, elementwise_affine=True)
                (mlp): Mlp(
                  (fc1): Linear(in_features=64, out_features=128, bias=True)
                  (act): GELU()
                  (fc2): Linear(in_features=128, out_features=64, bias=True)
                  (drop): Dropout(p=0.0, inplace=False)
                )
              )
              (3): SwinTransformerBlock(
                dim=64, input_resolution=(12, 12), num_heads=4, window_size=3, shift_size=1, mlp_ratio=2
                (norm1): LayerNorm((64,), eps=1e-05, elementwise_affine=True)
                (attn): WindowAttention(
                  dim=64, window_size=(3, 3), num_heads=4
                  (qkv): Linear(in_features=64, out_features=192, bias=True)
                  (attn_drop): Dropout(p=0.0, inplace=False)
                  (proj): Linear(in_features=64, out_features=64, bias=True)
                  (proj_drop): Dropout(p=0.0, inplace=False)
                  (softmax): Softmax(dim=-1)
                )
                (drop_path): DropPath()
                (norm2): LayerNorm((64,), eps=1e-05, elementwise_affine=True)
                (mlp): Mlp(
                  (fc1): Linear(in_features=64, out_features=128, bias=True)
                  (act): GELU()
                  (fc2): Linear(in_features=128, out_features=64, bias=True)
                  (drop): Dropout(p=0.0, inplace=False)
                )
              )
              (4): SwinTransformerBlock(
                dim=64, input_resolution=(12, 12), num_heads=4, window_size=3, shift_size=0, mlp_ratio=2
                (norm1): LayerNorm((64,), eps=1e-05, elementwise_affine=True)
                (attn): WindowAttention(
                  dim=64, window_size=(3, 3), num_heads=4
                  (qkv): Linear(in_features=64, out_features=192, bias=True)
                  (attn_drop): Dropout(p=0.0, inplace=False)
                  (proj): Linear(in_features=64, out_features=64, bias=True)
                  (proj_drop): Dropout(p=0.0, inplace=False)
                  (softmax): Softmax(dim=-1)
                )
                (drop_path): DropPath()
                (norm2): LayerNorm((64,), eps=1e-05, elementwise_affine=True)
                (mlp): Mlp(
                  (fc1): Linear(in_features=64, out_features=128, bias=True)
                  (act): GELU()
                  (fc2): Linear(in_features=128, out_features=64, bias=True)
                  (drop): Dropout(p=0.0, inplace=False)
                )
              )
              (5): SwinTransformerBlock(
                dim=64, input_resolution=(12, 12), num_heads=4, window_size=3, shift_size=1, mlp_ratio=2
                (norm1): LayerNorm((64,), eps=1e-05, elementwise_affine=True)
                (attn): WindowAttention(
                  dim=64, window_size=(3, 3), num_heads=4
                  (qkv): Linear(in_features=64, out_features=192, bias=True)
                  (attn_drop): Dropout(p=0.0, inplace=False)
                  (proj): Linear(in_features=64, out_features=64, bias=True)
                  (proj_drop): Dropout(p=0.0, inplace=False)
                  (softmax): Softmax(dim=-1)
                )
                (drop_path): DropPath()
                (norm2): LayerNorm((64,), eps=1e-05, elementwise_affine=True)
                (mlp): Mlp(
                  (fc1): Linear(in_features=64, out_features=128, bias=True)
                  (act): GELU()
                  (fc2): Linear(in_features=128, out_features=64, bias=True)
                  (drop): Dropout(p=0.0, inplace=False)
                )
              )
            )
          )
          (conv): Conv2d(64, 64, kernel_size=(3, 3), stride=(1, 1), padding=(1, 1))
          (patch_embed): PatchEmbed()
          (patch_unembed): PatchUnEmbed()
        )
        (3): RSTB(
          (residual_group): BasicLayer(
            dim=64, input_resolution=(12, 12), depth=6
            (blocks): ModuleList(
              (0): SwinTransformerBlock(
                dim=64, input_resolution=(12, 12), num_heads=4, window_size=3, shift_size=0, mlp_ratio=2
                (norm1): LayerNorm((64,), eps=1e-05, elementwise_affine=True)
                (attn): WindowAttention(
                  dim=64, window_size=(3, 3), num_heads=4
                  (qkv): Linear(in_features=64, out_features=192, bias=True)
                  (attn_drop): Dropout(p=0.0, inplace=False)
                  (proj): Linear(in_features=64, out_features=64, bias=True)
                  (proj_drop): Dropout(p=0.0, inplace=False)
                  (softmax): Softmax(dim=-1)
                )
                (drop_path): DropPath()
                (norm2): LayerNorm((64,), eps=1e-05, elementwise_affine=True)
                (mlp): Mlp(
                  (fc1): Linear(in_features=64, out_features=128, bias=True)
                  (act): GELU()
                  (fc2): Linear(in_features=128, out_features=64, bias=True)
                  (drop): Dropout(p=0.0, inplace=False)
                )
              )
              (1): SwinTransformerBlock(
                dim=64, input_resolution=(12, 12), num_heads=4, window_size=3, shift_size=1, mlp_ratio=2
                (norm1): LayerNorm((64,), eps=1e-05, elementwise_affine=True)
                (attn): WindowAttention(
                  dim=64, window_size=(3, 3), num_heads=4
                  (qkv): Linear(in_features=64, out_features=192, bias=True)
                  (attn_drop): Dropout(p=0.0, inplace=False)
                  (proj): Linear(in_features=64, out_features=64, bias=True)
                  (proj_drop): Dropout(p=0.0, inplace=False)
                  (softmax): Softmax(dim=-1)
                )
                (drop_path): DropPath()
                (norm2): LayerNorm((64,), eps=1e-05, elementwise_affine=True)
                (mlp): Mlp(
                  (fc1): Linear(in_features=64, out_features=128, bias=True)
                  (act): GELU()
                  (fc2): Linear(in_features=128, out_features=64, bias=True)
                  (drop): Dropout(p=0.0, inplace=False)
                )
              )
              (2): SwinTransformerBlock(
                dim=64, input_resolution=(12, 12), num_heads=4, window_size=3, shift_size=0, mlp_ratio=2
                (norm1): LayerNorm((64,), eps=1e-05, elementwise_affine=True)
                (attn): WindowAttention(
                  dim=64, window_size=(3, 3), num_heads=4
                  (qkv): Linear(in_features=64, out_features=192, bias=True)
                  (attn_drop): Dropout(p=0.0, inplace=False)
                  (proj): Linear(in_features=64, out_features=64, bias=True)
                  (proj_drop): Dropout(p=0.0, inplace=False)
                  (softmax): Softmax(dim=-1)
                )
                (drop_path): DropPath()
                (norm2): LayerNorm((64,), eps=1e-05, elementwise_affine=True)
                (mlp): Mlp(
                  (fc1): Linear(in_features=64, out_features=128, bias=True)
                  (act): GELU()
                  (fc2): Linear(in_features=128, out_features=64, bias=True)
                  (drop): Dropout(p=0.0, inplace=False)
                )
              )
              (3): SwinTransformerBlock(
                dim=64, input_resolution=(12, 12), num_heads=4, window_size=3, shift_size=1, mlp_ratio=2
                (norm1): LayerNorm((64,), eps=1e-05, elementwise_affine=True)
                (attn): WindowAttention(
                  dim=64, window_size=(3, 3), num_heads=4
                  (qkv): Linear(in_features=64, out_features=192, bias=True)
                  (attn_drop): Dropout(p=0.0, inplace=False)
                  (proj): Linear(in_features=64, out_features=64, bias=True)
                  (proj_drop): Dropout(p=0.0, inplace=False)
                  (softmax): Softmax(dim=-1)
                )
                (drop_path): DropPath()
                (norm2): LayerNorm((64,), eps=1e-05, elementwise_affine=True)
                (mlp): Mlp(
                  (fc1): Linear(in_features=64, out_features=128, bias=True)
                  (act): GELU()
                  (fc2): Linear(in_features=128, out_features=64, bias=True)
                  (drop): Dropout(p=0.0, inplace=False)
                )
              )
              (4): SwinTransformerBlock(
                dim=64, input_resolution=(12, 12), num_heads=4, window_size=3, shift_size=0, mlp_ratio=2
                (norm1): LayerNorm((64,), eps=1e-05, elementwise_affine=True)
                (attn): WindowAttention(
                  dim=64, window_size=(3, 3), num_heads=4
                  (qkv): Linear(in_features=64, out_features=192, bias=True)
                  (attn_drop): Dropout(p=0.0, inplace=False)
                  (proj): Linear(in_features=64, out_features=64, bias=True)
                  (proj_drop): Dropout(p=0.0, inplace=False)
                  (softmax): Softmax(dim=-1)
                )
                (drop_path): DropPath()
                (norm2): LayerNorm((64,), eps=1e-05, elementwise_affine=True)
                (mlp): Mlp(
                  (fc1): Linear(in_features=64, out_features=128, bias=True)
                  (act): GELU()
                  (fc2): Linear(in_features=128, out_features=64, bias=True)
                  (drop): Dropout(p=0.0, inplace=False)
                )
              )
              (5): SwinTransformerBlock(
                dim=64, input_resolution=(12, 12), num_heads=4, window_size=3, shift_size=1, mlp_ratio=2
                (norm1): LayerNorm((64,), eps=1e-05, elementwise_affine=True)
                (attn): WindowAttention(
                  dim=64, window_size=(3, 3), num_heads=4
                  (qkv): Linear(in_features=64, out_features=192, bias=True)
                  (attn_drop): Dropout(p=0.0, inplace=False)
                  (proj): Linear(in_features=64, out_features=64, bias=True)
                  (proj_drop): Dropout(p=0.0, inplace=False)
                  (softmax): Softmax(dim=-1)
                )
                (drop_path): DropPath()
                (norm2): LayerNorm((64,), eps=1e-05, elementwise_affine=True)
                (mlp): Mlp(
                  (fc1): Linear(in_features=64, out_features=128, bias=True)
                  (act): GELU()
                  (fc2): Linear(in_features=128, out_features=64, bias=True)
                  (drop): Dropout(p=0.0, inplace=False)
                )
              )
            )
          )
          (conv): Conv2d(64, 64, kernel_size=(3, 3), stride=(1, 1), padding=(1, 1))
          (patch_embed): PatchEmbed()
          (patch_unembed): PatchUnEmbed()
        )
      )
      (norm): LayerNorm((64,), eps=1e-05, elementwise_affine=True)
      (conv_after_body): Conv2d(64, 64, kernel_size=(3, 3), stride=(1, 1), padding=(1, 1))
      (conv_before_upsample): Sequential(
        (0): Conv2d(64, 64, kernel_size=(3, 3), stride=(1, 1), padding=(1, 1))
        (1): LeakyReLU(negative_slope=0.01, inplace=True)
      )
      (upsample): Upsample(
        (0): Conv2d(64, 256, kernel_size=(3, 3), stride=(1, 1), padding=(1, 1))
        (1): PixelShuffle(upscale_factor=2)
      )
      (conv_last): Conv2d(64, 64, kernel_size=(3, 3), stride=(1, 1), padding=(1, 1))
    )
    (sw_res2): SwinIR(
      (conv_first): Conv2d(64, 64, kernel_size=(3, 3), stride=(1, 1), padding=(1, 1))
      (patch_embed): PatchEmbed(
        (norm): LayerNorm((64,), eps=1e-05, elementwise_affine=True)
      )
      (patch_unembed): PatchUnEmbed()
      (pos_drop): Dropout(p=0.0, inplace=False)
      (layers): ModuleList(
        (0): RSTB(
          (residual_group): BasicLayer(
            dim=64, input_resolution=(24, 24), depth=6
            (blocks): ModuleList(
              (0): SwinTransformerBlock(
                dim=64, input_resolution=(24, 24), num_heads=4, window_size=3, shift_size=0, mlp_ratio=2
                (norm1): LayerNorm((64,), eps=1e-05, elementwise_affine=True)
                (attn): WindowAttention(
                  dim=64, window_size=(3, 3), num_heads=4
                  (qkv): Linear(in_features=64, out_features=192, bias=True)
                  (attn_drop): Dropout(p=0.0, inplace=False)
                  (proj): Linear(in_features=64, out_features=64, bias=True)
                  (proj_drop): Dropout(p=0.0, inplace=False)
                  (softmax): Softmax(dim=-1)
                )
                (drop_path): Identity()
                (norm2): LayerNorm((64,), eps=1e-05, elementwise_affine=True)
                (mlp): Mlp(
                  (fc1): Linear(in_features=64, out_features=128, bias=True)
                  (act): GELU()
                  (fc2): Linear(in_features=128, out_features=64, bias=True)
                  (drop): Dropout(p=0.0, inplace=False)
                )
              )
              (1): SwinTransformerBlock(
                dim=64, input_resolution=(24, 24), num_heads=4, window_size=3, shift_size=1, mlp_ratio=2
                (norm1): LayerNorm((64,), eps=1e-05, elementwise_affine=True)
                (attn): WindowAttention(
                  dim=64, window_size=(3, 3), num_heads=4
                  (qkv): Linear(in_features=64, out_features=192, bias=True)
                  (attn_drop): Dropout(p=0.0, inplace=False)
                  (proj): Linear(in_features=64, out_features=64, bias=True)
                  (proj_drop): Dropout(p=0.0, inplace=False)
                  (softmax): Softmax(dim=-1)
                )
                (drop_path): DropPath()
                (norm2): LayerNorm((64,), eps=1e-05, elementwise_affine=True)
                (mlp): Mlp(
                  (fc1): Linear(in_features=64, out_features=128, bias=True)
                  (act): GELU()
                  (fc2): Linear(in_features=128, out_features=64, bias=True)
                  (drop): Dropout(p=0.0, inplace=False)
                )
              )
              (2): SwinTransformerBlock(
                dim=64, input_resolution=(24, 24), num_heads=4, window_size=3, shift_size=0, mlp_ratio=2
                (norm1): LayerNorm((64,), eps=1e-05, elementwise_affine=True)
                (attn): WindowAttention(
                  dim=64, window_size=(3, 3), num_heads=4
                  (qkv): Linear(in_features=64, out_features=192, bias=True)
                  (attn_drop): Dropout(p=0.0, inplace=False)
                  (proj): Linear(in_features=64, out_features=64, bias=True)
                  (proj_drop): Dropout(p=0.0, inplace=False)
                  (softmax): Softmax(dim=-1)
                )
                (drop_path): DropPath()
                (norm2): LayerNorm((64,), eps=1e-05, elementwise_affine=True)
                (mlp): Mlp(
                  (fc1): Linear(in_features=64, out_features=128, bias=True)
                  (act): GELU()
                  (fc2): Linear(in_features=128, out_features=64, bias=True)
                  (drop): Dropout(p=0.0, inplace=False)
                )
              )
              (3): SwinTransformerBlock(
                dim=64, input_resolution=(24, 24), num_heads=4, window_size=3, shift_size=1, mlp_ratio=2
                (norm1): LayerNorm((64,), eps=1e-05, elementwise_affine=True)
                (attn): WindowAttention(
                  dim=64, window_size=(3, 3), num_heads=4
                  (qkv): Linear(in_features=64, out_features=192, bias=True)
                  (attn_drop): Dropout(p=0.0, inplace=False)
                  (proj): Linear(in_features=64, out_features=64, bias=True)
                  (proj_drop): Dropout(p=0.0, inplace=False)
                  (softmax): Softmax(dim=-1)
                )
                (drop_path): DropPath()
                (norm2): LayerNorm((64,), eps=1e-05, elementwise_affine=True)
                (mlp): Mlp(
                  (fc1): Linear(in_features=64, out_features=128, bias=True)
                  (act): GELU()
                  (fc2): Linear(in_features=128, out_features=64, bias=True)
                  (drop): Dropout(p=0.0, inplace=False)
                )
              )
              (4): SwinTransformerBlock(
                dim=64, input_resolution=(24, 24), num_heads=4, window_size=3, shift_size=0, mlp_ratio=2
                (norm1): LayerNorm((64,), eps=1e-05, elementwise_affine=True)
                (attn): WindowAttention(
                  dim=64, window_size=(3, 3), num_heads=4
                  (qkv): Linear(in_features=64, out_features=192, bias=True)
                  (attn_drop): Dropout(p=0.0, inplace=False)
                  (proj): Linear(in_features=64, out_features=64, bias=True)
                  (proj_drop): Dropout(p=0.0, inplace=False)
                  (softmax): Softmax(dim=-1)
                )
                (drop_path): DropPath()
                (norm2): LayerNorm((64,), eps=1e-05, elementwise_affine=True)
                (mlp): Mlp(
                  (fc1): Linear(in_features=64, out_features=128, bias=True)
                  (act): GELU()
                  (fc2): Linear(in_features=128, out_features=64, bias=True)
                  (drop): Dropout(p=0.0, inplace=False)
                )
              )
              (5): SwinTransformerBlock(
                dim=64, input_resolution=(24, 24), num_heads=4, window_size=3, shift_size=1, mlp_ratio=2
                (norm1): LayerNorm((64,), eps=1e-05, elementwise_affine=True)
                (attn): WindowAttention(
                  dim=64, window_size=(3, 3), num_heads=4
                  (qkv): Linear(in_features=64, out_features=192, bias=True)
                  (attn_drop): Dropout(p=0.0, inplace=False)
                  (proj): Linear(in_features=64, out_features=64, bias=True)
                  (proj_drop): Dropout(p=0.0, inplace=False)
                  (softmax): Softmax(dim=-1)
                )
                (drop_path): DropPath()
                (norm2): LayerNorm((64,), eps=1e-05, elementwise_affine=True)
                (mlp): Mlp(
                  (fc1): Linear(in_features=64, out_features=128, bias=True)
                  (act): GELU()
                  (fc2): Linear(in_features=128, out_features=64, bias=True)
                  (drop): Dropout(p=0.0, inplace=False)
                )
              )
            )
          )
          (conv): Conv2d(64, 64, kernel_size=(3, 3), stride=(1, 1), padding=(1, 1))
          (patch_embed): PatchEmbed()
          (patch_unembed): PatchUnEmbed()
        )
        (1): RSTB(
          (residual_group): BasicLayer(
            dim=64, input_resolution=(24, 24), depth=6
            (blocks): ModuleList(
              (0): SwinTransformerBlock(
                dim=64, input_resolution=(24, 24), num_heads=4, window_size=3, shift_size=0, mlp_ratio=2
                (norm1): LayerNorm((64,), eps=1e-05, elementwise_affine=True)
                (attn): WindowAttention(
                  dim=64, window_size=(3, 3), num_heads=4
                  (qkv): Linear(in_features=64, out_features=192, bias=True)
                  (attn_drop): Dropout(p=0.0, inplace=False)
                  (proj): Linear(in_features=64, out_features=64, bias=True)
                  (proj_drop): Dropout(p=0.0, inplace=False)
                  (softmax): Softmax(dim=-1)
                )
                (drop_path): DropPath()
                (norm2): LayerNorm((64,), eps=1e-05, elementwise_affine=True)
                (mlp): Mlp(
                  (fc1): Linear(in_features=64, out_features=128, bias=True)
                  (act): GELU()
                  (fc2): Linear(in_features=128, out_features=64, bias=True)
                  (drop): Dropout(p=0.0, inplace=False)
                )
              )
              (1): SwinTransformerBlock(
                dim=64, input_resolution=(24, 24), num_heads=4, window_size=3, shift_size=1, mlp_ratio=2
                (norm1): LayerNorm((64,), eps=1e-05, elementwise_affine=True)
                (attn): WindowAttention(
                  dim=64, window_size=(3, 3), num_heads=4
                  (qkv): Linear(in_features=64, out_features=192, bias=True)
                  (attn_drop): Dropout(p=0.0, inplace=False)
                  (proj): Linear(in_features=64, out_features=64, bias=True)
                  (proj_drop): Dropout(p=0.0, inplace=False)
                  (softmax): Softmax(dim=-1)
                )
                (drop_path): DropPath()
                (norm2): LayerNorm((64,), eps=1e-05, elementwise_affine=True)
                (mlp): Mlp(
                  (fc1): Linear(in_features=64, out_features=128, bias=True)
                  (act): GELU()
                  (fc2): Linear(in_features=128, out_features=64, bias=True)
                  (drop): Dropout(p=0.0, inplace=False)
                )
              )
              (2): SwinTransformerBlock(
                dim=64, input_resolution=(24, 24), num_heads=4, window_size=3, shift_size=0, mlp_ratio=2
                (norm1): LayerNorm((64,), eps=1e-05, elementwise_affine=True)
                (attn): WindowAttention(
                  dim=64, window_size=(3, 3), num_heads=4
                  (qkv): Linear(in_features=64, out_features=192, bias=True)
                  (attn_drop): Dropout(p=0.0, inplace=False)
                  (proj): Linear(in_features=64, out_features=64, bias=True)
                  (proj_drop): Dropout(p=0.0, inplace=False)
                  (softmax): Softmax(dim=-1)
                )
                (drop_path): DropPath()
                (norm2): LayerNorm((64,), eps=1e-05, elementwise_affine=True)
                (mlp): Mlp(
                  (fc1): Linear(in_features=64, out_features=128, bias=True)
                  (act): GELU()
                  (fc2): Linear(in_features=128, out_features=64, bias=True)
                  (drop): Dropout(p=0.0, inplace=False)
                )
              )
              (3): SwinTransformerBlock(
                dim=64, input_resolution=(24, 24), num_heads=4, window_size=3, shift_size=1, mlp_ratio=2
                (norm1): LayerNorm((64,), eps=1e-05, elementwise_affine=True)
                (attn): WindowAttention(
                  dim=64, window_size=(3, 3), num_heads=4
                  (qkv): Linear(in_features=64, out_features=192, bias=True)
                  (attn_drop): Dropout(p=0.0, inplace=False)
                  (proj): Linear(in_features=64, out_features=64, bias=True)
                  (proj_drop): Dropout(p=0.0, inplace=False)
                  (softmax): Softmax(dim=-1)
                )
                (drop_path): DropPath()
                (norm2): LayerNorm((64,), eps=1e-05, elementwise_affine=True)
                (mlp): Mlp(
                  (fc1): Linear(in_features=64, out_features=128, bias=True)
                  (act): GELU()
                  (fc2): Linear(in_features=128, out_features=64, bias=True)
                  (drop): Dropout(p=0.0, inplace=False)
                )
              )
              (4): SwinTransformerBlock(
                dim=64, input_resolution=(24, 24), num_heads=4, window_size=3, shift_size=0, mlp_ratio=2
                (norm1): LayerNorm((64,), eps=1e-05, elementwise_affine=True)
                (attn): WindowAttention(
                  dim=64, window_size=(3, 3), num_heads=4
                  (qkv): Linear(in_features=64, out_features=192, bias=True)
                  (attn_drop): Dropout(p=0.0, inplace=False)
                  (proj): Linear(in_features=64, out_features=64, bias=True)
                  (proj_drop): Dropout(p=0.0, inplace=False)
                  (softmax): Softmax(dim=-1)
                )
                (drop_path): DropPath()
                (norm2): LayerNorm((64,), eps=1e-05, elementwise_affine=True)
                (mlp): Mlp(
                  (fc1): Linear(in_features=64, out_features=128, bias=True)
                  (act): GELU()
                  (fc2): Linear(in_features=128, out_features=64, bias=True)
                  (drop): Dropout(p=0.0, inplace=False)
                )
              )
              (5): SwinTransformerBlock(
                dim=64, input_resolution=(24, 24), num_heads=4, window_size=3, shift_size=1, mlp_ratio=2
                (norm1): LayerNorm((64,), eps=1e-05, elementwise_affine=True)
                (attn): WindowAttention(
                  dim=64, window_size=(3, 3), num_heads=4
                  (qkv): Linear(in_features=64, out_features=192, bias=True)
                  (attn_drop): Dropout(p=0.0, inplace=False)
                  (proj): Linear(in_features=64, out_features=64, bias=True)
                  (proj_drop): Dropout(p=0.0, inplace=False)
                  (softmax): Softmax(dim=-1)
                )
                (drop_path): DropPath()
                (norm2): LayerNorm((64,), eps=1e-05, elementwise_affine=True)
                (mlp): Mlp(
                  (fc1): Linear(in_features=64, out_features=128, bias=True)
                  (act): GELU()
                  (fc2): Linear(in_features=128, out_features=64, bias=True)
                  (drop): Dropout(p=0.0, inplace=False)
                )
              )
            )
          )
          (conv): Conv2d(64, 64, kernel_size=(3, 3), stride=(1, 1), padding=(1, 1))
          (patch_embed): PatchEmbed()
          (patch_unembed): PatchUnEmbed()
        )
        (2): RSTB(
          (residual_group): BasicLayer(
            dim=64, input_resolution=(24, 24), depth=6
            (blocks): ModuleList(
              (0): SwinTransformerBlock(
                dim=64, input_resolution=(24, 24), num_heads=4, window_size=3, shift_size=0, mlp_ratio=2
                (norm1): LayerNorm((64,), eps=1e-05, elementwise_affine=True)
                (attn): WindowAttention(
                  dim=64, window_size=(3, 3), num_heads=4
                  (qkv): Linear(in_features=64, out_features=192, bias=True)
                  (attn_drop): Dropout(p=0.0, inplace=False)
                  (proj): Linear(in_features=64, out_features=64, bias=True)
                  (proj_drop): Dropout(p=0.0, inplace=False)
                  (softmax): Softmax(dim=-1)
                )
                (drop_path): DropPath()
                (norm2): LayerNorm((64,), eps=1e-05, elementwise_affine=True)
                (mlp): Mlp(
                  (fc1): Linear(in_features=64, out_features=128, bias=True)
                  (act): GELU()
                  (fc2): Linear(in_features=128, out_features=64, bias=True)
                  (drop): Dropout(p=0.0, inplace=False)
                )
              )
              (1): SwinTransformerBlock(
                dim=64, input_resolution=(24, 24), num_heads=4, window_size=3, shift_size=1, mlp_ratio=2
                (norm1): LayerNorm((64,), eps=1e-05, elementwise_affine=True)
                (attn): WindowAttention(
                  dim=64, window_size=(3, 3), num_heads=4
                  (qkv): Linear(in_features=64, out_features=192, bias=True)
                  (attn_drop): Dropout(p=0.0, inplace=False)
                  (proj): Linear(in_features=64, out_features=64, bias=True)
                  (proj_drop): Dropout(p=0.0, inplace=False)
                  (softmax): Softmax(dim=-1)
                )
                (drop_path): DropPath()
                (norm2): LayerNorm((64,), eps=1e-05, elementwise_affine=True)
                (mlp): Mlp(
                  (fc1): Linear(in_features=64, out_features=128, bias=True)
                  (act): GELU()
                  (fc2): Linear(in_features=128, out_features=64, bias=True)
                  (drop): Dropout(p=0.0, inplace=False)
                )
              )
              (2): SwinTransformerBlock(
                dim=64, input_resolution=(24, 24), num_heads=4, window_size=3, shift_size=0, mlp_ratio=2
                (norm1): LayerNorm((64,), eps=1e-05, elementwise_affine=True)
                (attn): WindowAttention(
                  dim=64, window_size=(3, 3), num_heads=4
                  (qkv): Linear(in_features=64, out_features=192, bias=True)
                  (attn_drop): Dropout(p=0.0, inplace=False)
                  (proj): Linear(in_features=64, out_features=64, bias=True)
                  (proj_drop): Dropout(p=0.0, inplace=False)
                  (softmax): Softmax(dim=-1)
                )
                (drop_path): DropPath()
                (norm2): LayerNorm((64,), eps=1e-05, elementwise_affine=True)
                (mlp): Mlp(
                  (fc1): Linear(in_features=64, out_features=128, bias=True)
                  (act): GELU()
                  (fc2): Linear(in_features=128, out_features=64, bias=True)
                  (drop): Dropout(p=0.0, inplace=False)
                )
              )
              (3): SwinTransformerBlock(
                dim=64, input_resolution=(24, 24), num_heads=4, window_size=3, shift_size=1, mlp_ratio=2
                (norm1): LayerNorm((64,), eps=1e-05, elementwise_affine=True)
                (attn): WindowAttention(
                  dim=64, window_size=(3, 3), num_heads=4
                  (qkv): Linear(in_features=64, out_features=192, bias=True)
                  (attn_drop): Dropout(p=0.0, inplace=False)
                  (proj): Linear(in_features=64, out_features=64, bias=True)
                  (proj_drop): Dropout(p=0.0, inplace=False)
                  (softmax): Softmax(dim=-1)
                )
                (drop_path): DropPath()
                (norm2): LayerNorm((64,), eps=1e-05, elementwise_affine=True)
                (mlp): Mlp(
                  (fc1): Linear(in_features=64, out_features=128, bias=True)
                  (act): GELU()
                  (fc2): Linear(in_features=128, out_features=64, bias=True)
                  (drop): Dropout(p=0.0, inplace=False)
                )
              )
              (4): SwinTransformerBlock(
                dim=64, input_resolution=(24, 24), num_heads=4, window_size=3, shift_size=0, mlp_ratio=2
                (norm1): LayerNorm((64,), eps=1e-05, elementwise_affine=True)
                (attn): WindowAttention(
                  dim=64, window_size=(3, 3), num_heads=4
                  (qkv): Linear(in_features=64, out_features=192, bias=True)
                  (attn_drop): Dropout(p=0.0, inplace=False)
                  (proj): Linear(in_features=64, out_features=64, bias=True)
                  (proj_drop): Dropout(p=0.0, inplace=False)
                  (softmax): Softmax(dim=-1)
                )
                (drop_path): DropPath()
                (norm2): LayerNorm((64,), eps=1e-05, elementwise_affine=True)
                (mlp): Mlp(
                  (fc1): Linear(in_features=64, out_features=128, bias=True)
                  (act): GELU()
                  (fc2): Linear(in_features=128, out_features=64, bias=True)
                  (drop): Dropout(p=0.0, inplace=False)
                )
              )
              (5): SwinTransformerBlock(
                dim=64, input_resolution=(24, 24), num_heads=4, window_size=3, shift_size=1, mlp_ratio=2
                (norm1): LayerNorm((64,), eps=1e-05, elementwise_affine=True)
                (attn): WindowAttention(
                  dim=64, window_size=(3, 3), num_heads=4
                  (qkv): Linear(in_features=64, out_features=192, bias=True)
                  (attn_drop): Dropout(p=0.0, inplace=False)
                  (proj): Linear(in_features=64, out_features=64, bias=True)
                  (proj_drop): Dropout(p=0.0, inplace=False)
                  (softmax): Softmax(dim=-1)
                )
                (drop_path): DropPath()
                (norm2): LayerNorm((64,), eps=1e-05, elementwise_affine=True)
                (mlp): Mlp(
                  (fc1): Linear(in_features=64, out_features=128, bias=True)
                  (act): GELU()
                  (fc2): Linear(in_features=128, out_features=64, bias=True)
                  (drop): Dropout(p=0.0, inplace=False)
                )
              )
            )
          )
          (conv): Conv2d(64, 64, kernel_size=(3, 3), stride=(1, 1), padding=(1, 1))
          (patch_embed): PatchEmbed()
          (patch_unembed): PatchUnEmbed()
        )
        (3): RSTB(
          (residual_group): BasicLayer(
            dim=64, input_resolution=(24, 24), depth=6
            (blocks): ModuleList(
              (0): SwinTransformerBlock(
                dim=64, input_resolution=(24, 24), num_heads=4, window_size=3, shift_size=0, mlp_ratio=2
                (norm1): LayerNorm((64,), eps=1e-05, elementwise_affine=True)
                (attn): WindowAttention(
                  dim=64, window_size=(3, 3), num_heads=4
                  (qkv): Linear(in_features=64, out_features=192, bias=True)
                  (attn_drop): Dropout(p=0.0, inplace=False)
                  (proj): Linear(in_features=64, out_features=64, bias=True)
                  (proj_drop): Dropout(p=0.0, inplace=False)
                  (softmax): Softmax(dim=-1)
                )
                (drop_path): DropPath()
                (norm2): LayerNorm((64,), eps=1e-05, elementwise_affine=True)
                (mlp): Mlp(
                  (fc1): Linear(in_features=64, out_features=128, bias=True)
                  (act): GELU()
                  (fc2): Linear(in_features=128, out_features=64, bias=True)
                  (drop): Dropout(p=0.0, inplace=False)
                )
              )
              (1): SwinTransformerBlock(
                dim=64, input_resolution=(24, 24), num_heads=4, window_size=3, shift_size=1, mlp_ratio=2
                (norm1): LayerNorm((64,), eps=1e-05, elementwise_affine=True)
                (attn): WindowAttention(
                  dim=64, window_size=(3, 3), num_heads=4
                  (qkv): Linear(in_features=64, out_features=192, bias=True)
                  (attn_drop): Dropout(p=0.0, inplace=False)
                  (proj): Linear(in_features=64, out_features=64, bias=True)
                  (proj_drop): Dropout(p=0.0, inplace=False)
                  (softmax): Softmax(dim=-1)
                )
                (drop_path): DropPath()
                (norm2): LayerNorm((64,), eps=1e-05, elementwise_affine=True)
                (mlp): Mlp(
                  (fc1): Linear(in_features=64, out_features=128, bias=True)
                  (act): GELU()
                  (fc2): Linear(in_features=128, out_features=64, bias=True)
                  (drop): Dropout(p=0.0, inplace=False)
                )
              )
              (2): SwinTransformerBlock(
                dim=64, input_resolution=(24, 24), num_heads=4, window_size=3, shift_size=0, mlp_ratio=2
                (norm1): LayerNorm((64,), eps=1e-05, elementwise_affine=True)
                (attn): WindowAttention(
                  dim=64, window_size=(3, 3), num_heads=4
                  (qkv): Linear(in_features=64, out_features=192, bias=True)
                  (attn_drop): Dropout(p=0.0, inplace=False)
                  (proj): Linear(in_features=64, out_features=64, bias=True)
                  (proj_drop): Dropout(p=0.0, inplace=False)
                  (softmax): Softmax(dim=-1)
                )
                (drop_path): DropPath()
                (norm2): LayerNorm((64,), eps=1e-05, elementwise_affine=True)
                (mlp): Mlp(
                  (fc1): Linear(in_features=64, out_features=128, bias=True)
                  (act): GELU()
                  (fc2): Linear(in_features=128, out_features=64, bias=True)
                  (drop): Dropout(p=0.0, inplace=False)
                )
              )
              (3): SwinTransformerBlock(
                dim=64, input_resolution=(24, 24), num_heads=4, window_size=3, shift_size=1, mlp_ratio=2
                (norm1): LayerNorm((64,), eps=1e-05, elementwise_affine=True)
                (attn): WindowAttention(
                  dim=64, window_size=(3, 3), num_heads=4
                  (qkv): Linear(in_features=64, out_features=192, bias=True)
                  (attn_drop): Dropout(p=0.0, inplace=False)
                  (proj): Linear(in_features=64, out_features=64, bias=True)
                  (proj_drop): Dropout(p=0.0, inplace=False)
                  (softmax): Softmax(dim=-1)
                )
                (drop_path): DropPath()
                (norm2): LayerNorm((64,), eps=1e-05, elementwise_affine=True)
                (mlp): Mlp(
                  (fc1): Linear(in_features=64, out_features=128, bias=True)
                  (act): GELU()
                  (fc2): Linear(in_features=128, out_features=64, bias=True)
                  (drop): Dropout(p=0.0, inplace=False)
                )
              )
              (4): SwinTransformerBlock(
                dim=64, input_resolution=(24, 24), num_heads=4, window_size=3, shift_size=0, mlp_ratio=2
                (norm1): LayerNorm((64,), eps=1e-05, elementwise_affine=True)
                (attn): WindowAttention(
                  dim=64, window_size=(3, 3), num_heads=4
                  (qkv): Linear(in_features=64, out_features=192, bias=True)
                  (attn_drop): Dropout(p=0.0, inplace=False)
                  (proj): Linear(in_features=64, out_features=64, bias=True)
                  (proj_drop): Dropout(p=0.0, inplace=False)
                  (softmax): Softmax(dim=-1)
                )
                (drop_path): DropPath()
                (norm2): LayerNorm((64,), eps=1e-05, elementwise_affine=True)
                (mlp): Mlp(
                  (fc1): Linear(in_features=64, out_features=128, bias=True)
                  (act): GELU()
                  (fc2): Linear(in_features=128, out_features=64, bias=True)
                  (drop): Dropout(p=0.0, inplace=False)
                )
              )
              (5): SwinTransformerBlock(
                dim=64, input_resolution=(24, 24), num_heads=4, window_size=3, shift_size=1, mlp_ratio=2
                (norm1): LayerNorm((64,), eps=1e-05, elementwise_affine=True)
                (attn): WindowAttention(
                  dim=64, window_size=(3, 3), num_heads=4
                  (qkv): Linear(in_features=64, out_features=192, bias=True)
                  (attn_drop): Dropout(p=0.0, inplace=False)
                  (proj): Linear(in_features=64, out_features=64, bias=True)
                  (proj_drop): Dropout(p=0.0, inplace=False)
                  (softmax): Softmax(dim=-1)
                )
                (drop_path): DropPath()
                (norm2): LayerNorm((64,), eps=1e-05, elementwise_affine=True)
                (mlp): Mlp(
                  (fc1): Linear(in_features=64, out_features=128, bias=True)
                  (act): GELU()
                  (fc2): Linear(in_features=128, out_features=64, bias=True)
                  (drop): Dropout(p=0.0, inplace=False)
                )
              )
            )
          )
          (conv): Conv2d(64, 64, kernel_size=(3, 3), stride=(1, 1), padding=(1, 1))
          (patch_embed): PatchEmbed()
          (patch_unembed): PatchUnEmbed()
        )
      )
      (norm): LayerNorm((64,), eps=1e-05, elementwise_affine=True)
      (conv_after_body): Conv2d(64, 64, kernel_size=(3, 3), stride=(1, 1), padding=(1, 1))
      (conv_before_upsample): Sequential(
        (0): Conv2d(64, 64, kernel_size=(3, 3), stride=(1, 1), padding=(1, 1))
        (1): LeakyReLU(negative_slope=0.01, inplace=True)
      )
      (upsample): Upsample(
        (0): Conv2d(64, 256, kernel_size=(3, 3), stride=(1, 1), padding=(1, 1))
        (1): PixelShuffle(upscale_factor=2)
      )
      (conv_last): Conv2d(64, 64, kernel_size=(3, 3), stride=(1, 1), padding=(1, 1))
    )
    (sw_res3): SwinIR(
      (conv_first): Conv2d(32, 32, kernel_size=(3, 3), stride=(1, 1), padding=(1, 1))
      (patch_embed): PatchEmbed(
        (norm): LayerNorm((32,), eps=1e-05, elementwise_affine=True)
      )
      (patch_unembed): PatchUnEmbed()
      (pos_drop): Dropout(p=0.0, inplace=False)
      (layers): ModuleList(
        (0): RSTB(
          (residual_group): BasicLayer(
            dim=32, input_resolution=(48, 48), depth=6
            (blocks): ModuleList(
              (0): SwinTransformerBlock(
                dim=32, input_resolution=(48, 48), num_heads=4, window_size=3, shift_size=0, mlp_ratio=2
                (norm1): LayerNorm((32,), eps=1e-05, elementwise_affine=True)
                (attn): WindowAttention(
                  dim=32, window_size=(3, 3), num_heads=4
                  (qkv): Linear(in_features=32, out_features=96, bias=True)
                  (attn_drop): Dropout(p=0.0, inplace=False)
                  (proj): Linear(in_features=32, out_features=32, bias=True)
                  (proj_drop): Dropout(p=0.0, inplace=False)
                  (softmax): Softmax(dim=-1)
                )
                (drop_path): Identity()
                (norm2): LayerNorm((32,), eps=1e-05, elementwise_affine=True)
                (mlp): Mlp(
                  (fc1): Linear(in_features=32, out_features=64, bias=True)
                  (act): GELU()
                  (fc2): Linear(in_features=64, out_features=32, bias=True)
                  (drop): Dropout(p=0.0, inplace=False)
                )
              )
              (1): SwinTransformerBlock(
                dim=32, input_resolution=(48, 48), num_heads=4, window_size=3, shift_size=1, mlp_ratio=2
                (norm1): LayerNorm((32,), eps=1e-05, elementwise_affine=True)
                (attn): WindowAttention(
                  dim=32, window_size=(3, 3), num_heads=4
                  (qkv): Linear(in_features=32, out_features=96, bias=True)
                  (attn_drop): Dropout(p=0.0, inplace=False)
                  (proj): Linear(in_features=32, out_features=32, bias=True)
                  (proj_drop): Dropout(p=0.0, inplace=False)
                  (softmax): Softmax(dim=-1)
                )
                (drop_path): DropPath()
                (norm2): LayerNorm((32,), eps=1e-05, elementwise_affine=True)
                (mlp): Mlp(
                  (fc1): Linear(in_features=32, out_features=64, bias=True)
                  (act): GELU()
                  (fc2): Linear(in_features=64, out_features=32, bias=True)
                  (drop): Dropout(p=0.0, inplace=False)
                )
              )
              (2): SwinTransformerBlock(
                dim=32, input_resolution=(48, 48), num_heads=4, window_size=3, shift_size=0, mlp_ratio=2
                (norm1): LayerNorm((32,), eps=1e-05, elementwise_affine=True)
                (attn): WindowAttention(
                  dim=32, window_size=(3, 3), num_heads=4
                  (qkv): Linear(in_features=32, out_features=96, bias=True)
                  (attn_drop): Dropout(p=0.0, inplace=False)
                  (proj): Linear(in_features=32, out_features=32, bias=True)
                  (proj_drop): Dropout(p=0.0, inplace=False)
                  (softmax): Softmax(dim=-1)
                )
                (drop_path): DropPath()
                (norm2): LayerNorm((32,), eps=1e-05, elementwise_affine=True)
                (mlp): Mlp(
                  (fc1): Linear(in_features=32, out_features=64, bias=True)
                  (act): GELU()
                  (fc2): Linear(in_features=64, out_features=32, bias=True)
                  (drop): Dropout(p=0.0, inplace=False)
                )
              )
              (3): SwinTransformerBlock(
                dim=32, input_resolution=(48, 48), num_heads=4, window_size=3, shift_size=1, mlp_ratio=2
                (norm1): LayerNorm((32,), eps=1e-05, elementwise_affine=True)
                (attn): WindowAttention(
                  dim=32, window_size=(3, 3), num_heads=4
                  (qkv): Linear(in_features=32, out_features=96, bias=True)
                  (attn_drop): Dropout(p=0.0, inplace=False)
                  (proj): Linear(in_features=32, out_features=32, bias=True)
                  (proj_drop): Dropout(p=0.0, inplace=False)
                  (softmax): Softmax(dim=-1)
                )
                (drop_path): DropPath()
                (norm2): LayerNorm((32,), eps=1e-05, elementwise_affine=True)
                (mlp): Mlp(
                  (fc1): Linear(in_features=32, out_features=64, bias=True)
                  (act): GELU()
                  (fc2): Linear(in_features=64, out_features=32, bias=True)
                  (drop): Dropout(p=0.0, inplace=False)
                )
              )
              (4): SwinTransformerBlock(
                dim=32, input_resolution=(48, 48), num_heads=4, window_size=3, shift_size=0, mlp_ratio=2
                (norm1): LayerNorm((32,), eps=1e-05, elementwise_affine=True)
                (attn): WindowAttention(
                  dim=32, window_size=(3, 3), num_heads=4
                  (qkv): Linear(in_features=32, out_features=96, bias=True)
                  (attn_drop): Dropout(p=0.0, inplace=False)
                  (proj): Linear(in_features=32, out_features=32, bias=True)
                  (proj_drop): Dropout(p=0.0, inplace=False)
                  (softmax): Softmax(dim=-1)
                )
                (drop_path): DropPath()
                (norm2): LayerNorm((32,), eps=1e-05, elementwise_affine=True)
                (mlp): Mlp(
                  (fc1): Linear(in_features=32, out_features=64, bias=True)
                  (act): GELU()
                  (fc2): Linear(in_features=64, out_features=32, bias=True)
                  (drop): Dropout(p=0.0, inplace=False)
                )
              )
              (5): SwinTransformerBlock(
                dim=32, input_resolution=(48, 48), num_heads=4, window_size=3, shift_size=1, mlp_ratio=2
                (norm1): LayerNorm((32,), eps=1e-05, elementwise_affine=True)
                (attn): WindowAttention(
                  dim=32, window_size=(3, 3), num_heads=4
                  (qkv): Linear(in_features=32, out_features=96, bias=True)
                  (attn_drop): Dropout(p=0.0, inplace=False)
                  (proj): Linear(in_features=32, out_features=32, bias=True)
                  (proj_drop): Dropout(p=0.0, inplace=False)
                  (softmax): Softmax(dim=-1)
                )
                (drop_path): DropPath()
                (norm2): LayerNorm((32,), eps=1e-05, elementwise_affine=True)
                (mlp): Mlp(
                  (fc1): Linear(in_features=32, out_features=64, bias=True)
                  (act): GELU()
                  (fc2): Linear(in_features=64, out_features=32, bias=True)
                  (drop): Dropout(p=0.0, inplace=False)
                )
              )
            )
          )
          (conv): Conv2d(32, 32, kernel_size=(3, 3), stride=(1, 1), padding=(1, 1))
          (patch_embed): PatchEmbed()
          (patch_unembed): PatchUnEmbed()
        )
        (1): RSTB(
          (residual_group): BasicLayer(
            dim=32, input_resolution=(48, 48), depth=6
            (blocks): ModuleList(
              (0): SwinTransformerBlock(
                dim=32, input_resolution=(48, 48), num_heads=4, window_size=3, shift_size=0, mlp_ratio=2
                (norm1): LayerNorm((32,), eps=1e-05, elementwise_affine=True)
                (attn): WindowAttention(
                  dim=32, window_size=(3, 3), num_heads=4
                  (qkv): Linear(in_features=32, out_features=96, bias=True)
                  (attn_drop): Dropout(p=0.0, inplace=False)
                  (proj): Linear(in_features=32, out_features=32, bias=True)
                  (proj_drop): Dropout(p=0.0, inplace=False)
                  (softmax): Softmax(dim=-1)
                )
                (drop_path): DropPath()
                (norm2): LayerNorm((32,), eps=1e-05, elementwise_affine=True)
                (mlp): Mlp(
                  (fc1): Linear(in_features=32, out_features=64, bias=True)
                  (act): GELU()
                  (fc2): Linear(in_features=64, out_features=32, bias=True)
                  (drop): Dropout(p=0.0, inplace=False)
                )
              )
              (1): SwinTransformerBlock(
                dim=32, input_resolution=(48, 48), num_heads=4, window_size=3, shift_size=1, mlp_ratio=2
                (norm1): LayerNorm((32,), eps=1e-05, elementwise_affine=True)
                (attn): WindowAttention(
                  dim=32, window_size=(3, 3), num_heads=4
                  (qkv): Linear(in_features=32, out_features=96, bias=True)
                  (attn_drop): Dropout(p=0.0, inplace=False)
                  (proj): Linear(in_features=32, out_features=32, bias=True)
                  (proj_drop): Dropout(p=0.0, inplace=False)
                  (softmax): Softmax(dim=-1)
                )
                (drop_path): DropPath()
                (norm2): LayerNorm((32,), eps=1e-05, elementwise_affine=True)
                (mlp): Mlp(
                  (fc1): Linear(in_features=32, out_features=64, bias=True)
                  (act): GELU()
                  (fc2): Linear(in_features=64, out_features=32, bias=True)
                  (drop): Dropout(p=0.0, inplace=False)
                )
              )
              (2): SwinTransformerBlock(
                dim=32, input_resolution=(48, 48), num_heads=4, window_size=3, shift_size=0, mlp_ratio=2
                (norm1): LayerNorm((32,), eps=1e-05, elementwise_affine=True)
                (attn): WindowAttention(
                  dim=32, window_size=(3, 3), num_heads=4
                  (qkv): Linear(in_features=32, out_features=96, bias=True)
                  (attn_drop): Dropout(p=0.0, inplace=False)
                  (proj): Linear(in_features=32, out_features=32, bias=True)
                  (proj_drop): Dropout(p=0.0, inplace=False)
                  (softmax): Softmax(dim=-1)
                )
                (drop_path): DropPath()
                (norm2): LayerNorm((32,), eps=1e-05, elementwise_affine=True)
                (mlp): Mlp(
                  (fc1): Linear(in_features=32, out_features=64, bias=True)
                  (act): GELU()
                  (fc2): Linear(in_features=64, out_features=32, bias=True)
                  (drop): Dropout(p=0.0, inplace=False)
                )
              )
              (3): SwinTransformerBlock(
                dim=32, input_resolution=(48, 48), num_heads=4, window_size=3, shift_size=1, mlp_ratio=2
                (norm1): LayerNorm((32,), eps=1e-05, elementwise_affine=True)
                (attn): WindowAttention(
                  dim=32, window_size=(3, 3), num_heads=4
                  (qkv): Linear(in_features=32, out_features=96, bias=True)
                  (attn_drop): Dropout(p=0.0, inplace=False)
                  (proj): Linear(in_features=32, out_features=32, bias=True)
                  (proj_drop): Dropout(p=0.0, inplace=False)
                  (softmax): Softmax(dim=-1)
                )
                (drop_path): DropPath()
                (norm2): LayerNorm((32,), eps=1e-05, elementwise_affine=True)
                (mlp): Mlp(
                  (fc1): Linear(in_features=32, out_features=64, bias=True)
                  (act): GELU()
                  (fc2): Linear(in_features=64, out_features=32, bias=True)
                  (drop): Dropout(p=0.0, inplace=False)
                )
              )
              (4): SwinTransformerBlock(
                dim=32, input_resolution=(48, 48), num_heads=4, window_size=3, shift_size=0, mlp_ratio=2
                (norm1): LayerNorm((32,), eps=1e-05, elementwise_affine=True)
                (attn): WindowAttention(
                  dim=32, window_size=(3, 3), num_heads=4
                  (qkv): Linear(in_features=32, out_features=96, bias=True)
                  (attn_drop): Dropout(p=0.0, inplace=False)
                  (proj): Linear(in_features=32, out_features=32, bias=True)
                  (proj_drop): Dropout(p=0.0, inplace=False)
                  (softmax): Softmax(dim=-1)
                )
                (drop_path): DropPath()
                (norm2): LayerNorm((32,), eps=1e-05, elementwise_affine=True)
                (mlp): Mlp(
                  (fc1): Linear(in_features=32, out_features=64, bias=True)
                  (act): GELU()
                  (fc2): Linear(in_features=64, out_features=32, bias=True)
                  (drop): Dropout(p=0.0, inplace=False)
                )
              )
              (5): SwinTransformerBlock(
                dim=32, input_resolution=(48, 48), num_heads=4, window_size=3, shift_size=1, mlp_ratio=2
                (norm1): LayerNorm((32,), eps=1e-05, elementwise_affine=True)
                (attn): WindowAttention(
                  dim=32, window_size=(3, 3), num_heads=4
                  (qkv): Linear(in_features=32, out_features=96, bias=True)
                  (attn_drop): Dropout(p=0.0, inplace=False)
                  (proj): Linear(in_features=32, out_features=32, bias=True)
                  (proj_drop): Dropout(p=0.0, inplace=False)
                  (softmax): Softmax(dim=-1)
                )
                (drop_path): DropPath()
                (norm2): LayerNorm((32,), eps=1e-05, elementwise_affine=True)
                (mlp): Mlp(
                  (fc1): Linear(in_features=32, out_features=64, bias=True)
                  (act): GELU()
                  (fc2): Linear(in_features=64, out_features=32, bias=True)
                  (drop): Dropout(p=0.0, inplace=False)
                )
              )
            )
          )
          (conv): Conv2d(32, 32, kernel_size=(3, 3), stride=(1, 1), padding=(1, 1))
          (patch_embed): PatchEmbed()
          (patch_unembed): PatchUnEmbed()
        )
        (2): RSTB(
          (residual_group): BasicLayer(
            dim=32, input_resolution=(48, 48), depth=6
            (blocks): ModuleList(
              (0): SwinTransformerBlock(
                dim=32, input_resolution=(48, 48), num_heads=4, window_size=3, shift_size=0, mlp_ratio=2
                (norm1): LayerNorm((32,), eps=1e-05, elementwise_affine=True)
                (attn): WindowAttention(
                  dim=32, window_size=(3, 3), num_heads=4
                  (qkv): Linear(in_features=32, out_features=96, bias=True)
                  (attn_drop): Dropout(p=0.0, inplace=False)
                  (proj): Linear(in_features=32, out_features=32, bias=True)
                  (proj_drop): Dropout(p=0.0, inplace=False)
                  (softmax): Softmax(dim=-1)
                )
                (drop_path): DropPath()
                (norm2): LayerNorm((32,), eps=1e-05, elementwise_affine=True)
                (mlp): Mlp(
                  (fc1): Linear(in_features=32, out_features=64, bias=True)
                  (act): GELU()
                  (fc2): Linear(in_features=64, out_features=32, bias=True)
                  (drop): Dropout(p=0.0, inplace=False)
                )
              )
              (1): SwinTransformerBlock(
                dim=32, input_resolution=(48, 48), num_heads=4, window_size=3, shift_size=1, mlp_ratio=2
                (norm1): LayerNorm((32,), eps=1e-05, elementwise_affine=True)
                (attn): WindowAttention(
                  dim=32, window_size=(3, 3), num_heads=4
                  (qkv): Linear(in_features=32, out_features=96, bias=True)
                  (attn_drop): Dropout(p=0.0, inplace=False)
                  (proj): Linear(in_features=32, out_features=32, bias=True)
                  (proj_drop): Dropout(p=0.0, inplace=False)
                  (softmax): Softmax(dim=-1)
                )
                (drop_path): DropPath()
                (norm2): LayerNorm((32,), eps=1e-05, elementwise_affine=True)
                (mlp): Mlp(
                  (fc1): Linear(in_features=32, out_features=64, bias=True)
                  (act): GELU()
                  (fc2): Linear(in_features=64, out_features=32, bias=True)
                  (drop): Dropout(p=0.0, inplace=False)
                )
              )
              (2): SwinTransformerBlock(
                dim=32, input_resolution=(48, 48), num_heads=4, window_size=3, shift_size=0, mlp_ratio=2
                (norm1): LayerNorm((32,), eps=1e-05, elementwise_affine=True)
                (attn): WindowAttention(
                  dim=32, window_size=(3, 3), num_heads=4
                  (qkv): Linear(in_features=32, out_features=96, bias=True)
                  (attn_drop): Dropout(p=0.0, inplace=False)
                  (proj): Linear(in_features=32, out_features=32, bias=True)
                  (proj_drop): Dropout(p=0.0, inplace=False)
                  (softmax): Softmax(dim=-1)
                )
                (drop_path): DropPath()
                (norm2): LayerNorm((32,), eps=1e-05, elementwise_affine=True)
                (mlp): Mlp(
                  (fc1): Linear(in_features=32, out_features=64, bias=True)
                  (act): GELU()
                  (fc2): Linear(in_features=64, out_features=32, bias=True)
                  (drop): Dropout(p=0.0, inplace=False)
                )
              )
              (3): SwinTransformerBlock(
                dim=32, input_resolution=(48, 48), num_heads=4, window_size=3, shift_size=1, mlp_ratio=2
                (norm1): LayerNorm((32,), eps=1e-05, elementwise_affine=True)
                (attn): WindowAttention(
                  dim=32, window_size=(3, 3), num_heads=4
                  (qkv): Linear(in_features=32, out_features=96, bias=True)
                  (attn_drop): Dropout(p=0.0, inplace=False)
                  (proj): Linear(in_features=32, out_features=32, bias=True)
                  (proj_drop): Dropout(p=0.0, inplace=False)
                  (softmax): Softmax(dim=-1)
                )
                (drop_path): DropPath()
                (norm2): LayerNorm((32,), eps=1e-05, elementwise_affine=True)
                (mlp): Mlp(
                  (fc1): Linear(in_features=32, out_features=64, bias=True)
                  (act): GELU()
                  (fc2): Linear(in_features=64, out_features=32, bias=True)
                  (drop): Dropout(p=0.0, inplace=False)
                )
              )
              (4): SwinTransformerBlock(
                dim=32, input_resolution=(48, 48), num_heads=4, window_size=3, shift_size=0, mlp_ratio=2
                (norm1): LayerNorm((32,), eps=1e-05, elementwise_affine=True)
                (attn): WindowAttention(
                  dim=32, window_size=(3, 3), num_heads=4
                  (qkv): Linear(in_features=32, out_features=96, bias=True)
                  (attn_drop): Dropout(p=0.0, inplace=False)
                  (proj): Linear(in_features=32, out_features=32, bias=True)
                  (proj_drop): Dropout(p=0.0, inplace=False)
                  (softmax): Softmax(dim=-1)
                )
                (drop_path): DropPath()
                (norm2): LayerNorm((32,), eps=1e-05, elementwise_affine=True)
                (mlp): Mlp(
                  (fc1): Linear(in_features=32, out_features=64, bias=True)
                  (act): GELU()
                  (fc2): Linear(in_features=64, out_features=32, bias=True)
                  (drop): Dropout(p=0.0, inplace=False)
                )
              )
              (5): SwinTransformerBlock(
                dim=32, input_resolution=(48, 48), num_heads=4, window_size=3, shift_size=1, mlp_ratio=2
                (norm1): LayerNorm((32,), eps=1e-05, elementwise_affine=True)
                (attn): WindowAttention(
                  dim=32, window_size=(3, 3), num_heads=4
                  (qkv): Linear(in_features=32, out_features=96, bias=True)
                  (attn_drop): Dropout(p=0.0, inplace=False)
                  (proj): Linear(in_features=32, out_features=32, bias=True)
                  (proj_drop): Dropout(p=0.0, inplace=False)
                  (softmax): Softmax(dim=-1)
                )
                (drop_path): DropPath()
                (norm2): LayerNorm((32,), eps=1e-05, elementwise_affine=True)
                (mlp): Mlp(
                  (fc1): Linear(in_features=32, out_features=64, bias=True)
                  (act): GELU()
                  (fc2): Linear(in_features=64, out_features=32, bias=True)
                  (drop): Dropout(p=0.0, inplace=False)
                )
              )
            )
          )
          (conv): Conv2d(32, 32, kernel_size=(3, 3), stride=(1, 1), padding=(1, 1))
          (patch_embed): PatchEmbed()
          (patch_unembed): PatchUnEmbed()
        )
        (3): RSTB(
          (residual_group): BasicLayer(
            dim=32, input_resolution=(48, 48), depth=6
            (blocks): ModuleList(
              (0): SwinTransformerBlock(
                dim=32, input_resolution=(48, 48), num_heads=4, window_size=3, shift_size=0, mlp_ratio=2
                (norm1): LayerNorm((32,), eps=1e-05, elementwise_affine=True)
                (attn): WindowAttention(
                  dim=32, window_size=(3, 3), num_heads=4
                  (qkv): Linear(in_features=32, out_features=96, bias=True)
                  (attn_drop): Dropout(p=0.0, inplace=False)
                  (proj): Linear(in_features=32, out_features=32, bias=True)
                  (proj_drop): Dropout(p=0.0, inplace=False)
                  (softmax): Softmax(dim=-1)
                )
                (drop_path): DropPath()
                (norm2): LayerNorm((32,), eps=1e-05, elementwise_affine=True)
                (mlp): Mlp(
                  (fc1): Linear(in_features=32, out_features=64, bias=True)
                  (act): GELU()
                  (fc2): Linear(in_features=64, out_features=32, bias=True)
                  (drop): Dropout(p=0.0, inplace=False)
                )
              )
              (1): SwinTransformerBlock(
                dim=32, input_resolution=(48, 48), num_heads=4, window_size=3, shift_size=1, mlp_ratio=2
                (norm1): LayerNorm((32,), eps=1e-05, elementwise_affine=True)
                (attn): WindowAttention(
                  dim=32, window_size=(3, 3), num_heads=4
                  (qkv): Linear(in_features=32, out_features=96, bias=True)
                  (attn_drop): Dropout(p=0.0, inplace=False)
                  (proj): Linear(in_features=32, out_features=32, bias=True)
                  (proj_drop): Dropout(p=0.0, inplace=False)
                  (softmax): Softmax(dim=-1)
                )
                (drop_path): DropPath()
                (norm2): LayerNorm((32,), eps=1e-05, elementwise_affine=True)
                (mlp): Mlp(
                  (fc1): Linear(in_features=32, out_features=64, bias=True)
                  (act): GELU()
                  (fc2): Linear(in_features=64, out_features=32, bias=True)
                  (drop): Dropout(p=0.0, inplace=False)
                )
              )
              (2): SwinTransformerBlock(
                dim=32, input_resolution=(48, 48), num_heads=4, window_size=3, shift_size=0, mlp_ratio=2
                (norm1): LayerNorm((32,), eps=1e-05, elementwise_affine=True)
                (attn): WindowAttention(
                  dim=32, window_size=(3, 3), num_heads=4
                  (qkv): Linear(in_features=32, out_features=96, bias=True)
                  (attn_drop): Dropout(p=0.0, inplace=False)
                  (proj): Linear(in_features=32, out_features=32, bias=True)
                  (proj_drop): Dropout(p=0.0, inplace=False)
                  (softmax): Softmax(dim=-1)
                )
                (drop_path): DropPath()
                (norm2): LayerNorm((32,), eps=1e-05, elementwise_affine=True)
                (mlp): Mlp(
                  (fc1): Linear(in_features=32, out_features=64, bias=True)
                  (act): GELU()
                  (fc2): Linear(in_features=64, out_features=32, bias=True)
                  (drop): Dropout(p=0.0, inplace=False)
                )
              )
              (3): SwinTransformerBlock(
                dim=32, input_resolution=(48, 48), num_heads=4, window_size=3, shift_size=1, mlp_ratio=2
                (norm1): LayerNorm((32,), eps=1e-05, elementwise_affine=True)
                (attn): WindowAttention(
                  dim=32, window_size=(3, 3), num_heads=4
                  (qkv): Linear(in_features=32, out_features=96, bias=True)
                  (attn_drop): Dropout(p=0.0, inplace=False)
                  (proj): Linear(in_features=32, out_features=32, bias=True)
                  (proj_drop): Dropout(p=0.0, inplace=False)
                  (softmax): Softmax(dim=-1)
                )
                (drop_path): DropPath()
                (norm2): LayerNorm((32,), eps=1e-05, elementwise_affine=True)
                (mlp): Mlp(
                  (fc1): Linear(in_features=32, out_features=64, bias=True)
                  (act): GELU()
                  (fc2): Linear(in_features=64, out_features=32, bias=True)
                  (drop): Dropout(p=0.0, inplace=False)
                )
              )
              (4): SwinTransformerBlock(
                dim=32, input_resolution=(48, 48), num_heads=4, window_size=3, shift_size=0, mlp_ratio=2
                (norm1): LayerNorm((32,), eps=1e-05, elementwise_affine=True)
                (attn): WindowAttention(
                  dim=32, window_size=(3, 3), num_heads=4
                  (qkv): Linear(in_features=32, out_features=96, bias=True)
                  (attn_drop): Dropout(p=0.0, inplace=False)
                  (proj): Linear(in_features=32, out_features=32, bias=True)
                  (proj_drop): Dropout(p=0.0, inplace=False)
                  (softmax): Softmax(dim=-1)
                )
                (drop_path): DropPath()
                (norm2): LayerNorm((32,), eps=1e-05, elementwise_affine=True)
                (mlp): Mlp(
                  (fc1): Linear(in_features=32, out_features=64, bias=True)
                  (act): GELU()
                  (fc2): Linear(in_features=64, out_features=32, bias=True)
                  (drop): Dropout(p=0.0, inplace=False)
                )
              )
              (5): SwinTransformerBlock(
                dim=32, input_resolution=(48, 48), num_heads=4, window_size=3, shift_size=1, mlp_ratio=2
                (norm1): LayerNorm((32,), eps=1e-05, elementwise_affine=True)
                (attn): WindowAttention(
                  dim=32, window_size=(3, 3), num_heads=4
                  (qkv): Linear(in_features=32, out_features=96, bias=True)
                  (attn_drop): Dropout(p=0.0, inplace=False)
                  (proj): Linear(in_features=32, out_features=32, bias=True)
                  (proj_drop): Dropout(p=0.0, inplace=False)
                  (softmax): Softmax(dim=-1)
                )
                (drop_path): DropPath()
                (norm2): LayerNorm((32,), eps=1e-05, elementwise_affine=True)
                (mlp): Mlp(
                  (fc1): Linear(in_features=32, out_features=64, bias=True)
                  (act): GELU()
                  (fc2): Linear(in_features=64, out_features=32, bias=True)
                  (drop): Dropout(p=0.0, inplace=False)
                )
              )
            )
          )
          (conv): Conv2d(32, 32, kernel_size=(3, 3), stride=(1, 1), padding=(1, 1))
          (patch_embed): PatchEmbed()
          (patch_unembed): PatchUnEmbed()
        )
      )
      (norm): LayerNorm((32,), eps=1e-05, elementwise_affine=True)
      (conv_after_body): Conv2d(32, 32, kernel_size=(3, 3), stride=(1, 1), padding=(1, 1))
      (conv_before_upsample): Sequential(
        (0): Conv2d(32, 64, kernel_size=(3, 3), stride=(1, 1), padding=(1, 1))
        (1): LeakyReLU(negative_slope=0.01, inplace=True)
      )
      (upsample): Upsample(
        (0): Conv2d(64, 256, kernel_size=(3, 3), stride=(1, 1), padding=(1, 1))
        (1): PixelShuffle(upscale_factor=2)
      )
      (conv_last): Conv2d(64, 32, kernel_size=(3, 3), stride=(1, 1), padding=(1, 1))
    )
    (sw_res4): SwinIR(
      (conv_first): Conv2d(16, 16, kernel_size=(3, 3), stride=(1, 1), padding=(1, 1))
      (patch_embed): PatchEmbed(
        (norm): LayerNorm((16,), eps=1e-05, elementwise_affine=True)
      )
      (patch_unembed): PatchUnEmbed()
      (pos_drop): Dropout(p=0.0, inplace=False)
      (layers): ModuleList(
        (0): RSTB(
          (residual_group): BasicLayer(
            dim=16, input_resolution=(96, 96), depth=6
            (blocks): ModuleList(
              (0): SwinTransformerBlock(
                dim=16, input_resolution=(96, 96), num_heads=4, window_size=3, shift_size=0, mlp_ratio=2
                (norm1): LayerNorm((16,), eps=1e-05, elementwise_affine=True)
                (attn): WindowAttention(
                  dim=16, window_size=(3, 3), num_heads=4
                  (qkv): Linear(in_features=16, out_features=48, bias=True)
                  (attn_drop): Dropout(p=0.0, inplace=False)
                  (proj): Linear(in_features=16, out_features=16, bias=True)
                  (proj_drop): Dropout(p=0.0, inplace=False)
                  (softmax): Softmax(dim=-1)
                )
                (drop_path): Identity()
                (norm2): LayerNorm((16,), eps=1e-05, elementwise_affine=True)
                (mlp): Mlp(
                  (fc1): Linear(in_features=16, out_features=32, bias=True)
                  (act): GELU()
                  (fc2): Linear(in_features=32, out_features=16, bias=True)
                  (drop): Dropout(p=0.0, inplace=False)
                )
              )
              (1): SwinTransformerBlock(
                dim=16, input_resolution=(96, 96), num_heads=4, window_size=3, shift_size=1, mlp_ratio=2
                (norm1): LayerNorm((16,), eps=1e-05, elementwise_affine=True)
                (attn): WindowAttention(
                  dim=16, window_size=(3, 3), num_heads=4
                  (qkv): Linear(in_features=16, out_features=48, bias=True)
                  (attn_drop): Dropout(p=0.0, inplace=False)
                  (proj): Linear(in_features=16, out_features=16, bias=True)
                  (proj_drop): Dropout(p=0.0, inplace=False)
                  (softmax): Softmax(dim=-1)
                )
                (drop_path): DropPath()
                (norm2): LayerNorm((16,), eps=1e-05, elementwise_affine=True)
                (mlp): Mlp(
                  (fc1): Linear(in_features=16, out_features=32, bias=True)
                  (act): GELU()
                  (fc2): Linear(in_features=32, out_features=16, bias=True)
                  (drop): Dropout(p=0.0, inplace=False)
                )
              )
              (2): SwinTransformerBlock(
                dim=16, input_resolution=(96, 96), num_heads=4, window_size=3, shift_size=0, mlp_ratio=2
                (norm1): LayerNorm((16,), eps=1e-05, elementwise_affine=True)
                (attn): WindowAttention(
                  dim=16, window_size=(3, 3), num_heads=4
                  (qkv): Linear(in_features=16, out_features=48, bias=True)
                  (attn_drop): Dropout(p=0.0, inplace=False)
                  (proj): Linear(in_features=16, out_features=16, bias=True)
                  (proj_drop): Dropout(p=0.0, inplace=False)
                  (softmax): Softmax(dim=-1)
                )
                (drop_path): DropPath()
                (norm2): LayerNorm((16,), eps=1e-05, elementwise_affine=True)
                (mlp): Mlp(
                  (fc1): Linear(in_features=16, out_features=32, bias=True)
                  (act): GELU()
                  (fc2): Linear(in_features=32, out_features=16, bias=True)
                  (drop): Dropout(p=0.0, inplace=False)
                )
              )
              (3): SwinTransformerBlock(
                dim=16, input_resolution=(96, 96), num_heads=4, window_size=3, shift_size=1, mlp_ratio=2
                (norm1): LayerNorm((16,), eps=1e-05, elementwise_affine=True)
                (attn): WindowAttention(
                  dim=16, window_size=(3, 3), num_heads=4
                  (qkv): Linear(in_features=16, out_features=48, bias=True)
                  (attn_drop): Dropout(p=0.0, inplace=False)
                  (proj): Linear(in_features=16, out_features=16, bias=True)
                  (proj_drop): Dropout(p=0.0, inplace=False)
                  (softmax): Softmax(dim=-1)
                )
                (drop_path): DropPath()
                (norm2): LayerNorm((16,), eps=1e-05, elementwise_affine=True)
                (mlp): Mlp(
                  (fc1): Linear(in_features=16, out_features=32, bias=True)
                  (act): GELU()
                  (fc2): Linear(in_features=32, out_features=16, bias=True)
                  (drop): Dropout(p=0.0, inplace=False)
                )
              )
              (4): SwinTransformerBlock(
                dim=16, input_resolution=(96, 96), num_heads=4, window_size=3, shift_size=0, mlp_ratio=2
                (norm1): LayerNorm((16,), eps=1e-05, elementwise_affine=True)
                (attn): WindowAttention(
                  dim=16, window_size=(3, 3), num_heads=4
                  (qkv): Linear(in_features=16, out_features=48, bias=True)
                  (attn_drop): Dropout(p=0.0, inplace=False)
                  (proj): Linear(in_features=16, out_features=16, bias=True)
                  (proj_drop): Dropout(p=0.0, inplace=False)
                  (softmax): Softmax(dim=-1)
                )
                (drop_path): DropPath()
                (norm2): LayerNorm((16,), eps=1e-05, elementwise_affine=True)
                (mlp): Mlp(
                  (fc1): Linear(in_features=16, out_features=32, bias=True)
                  (act): GELU()
                  (fc2): Linear(in_features=32, out_features=16, bias=True)
                  (drop): Dropout(p=0.0, inplace=False)
                )
              )
              (5): SwinTransformerBlock(
                dim=16, input_resolution=(96, 96), num_heads=4, window_size=3, shift_size=1, mlp_ratio=2
                (norm1): LayerNorm((16,), eps=1e-05, elementwise_affine=True)
                (attn): WindowAttention(
                  dim=16, window_size=(3, 3), num_heads=4
                  (qkv): Linear(in_features=16, out_features=48, bias=True)
                  (attn_drop): Dropout(p=0.0, inplace=False)
                  (proj): Linear(in_features=16, out_features=16, bias=True)
                  (proj_drop): Dropout(p=0.0, inplace=False)
                  (softmax): Softmax(dim=-1)
                )
                (drop_path): DropPath()
                (norm2): LayerNorm((16,), eps=1e-05, elementwise_affine=True)
                (mlp): Mlp(
                  (fc1): Linear(in_features=16, out_features=32, bias=True)
                  (act): GELU()
                  (fc2): Linear(in_features=32, out_features=16, bias=True)
                  (drop): Dropout(p=0.0, inplace=False)
                )
              )
            )
          )
          (conv): Conv2d(16, 16, kernel_size=(3, 3), stride=(1, 1), padding=(1, 1))
          (patch_embed): PatchEmbed()
          (patch_unembed): PatchUnEmbed()
        )
        (1): RSTB(
          (residual_group): BasicLayer(
            dim=16, input_resolution=(96, 96), depth=6
            (blocks): ModuleList(
              (0): SwinTransformerBlock(
                dim=16, input_resolution=(96, 96), num_heads=4, window_size=3, shift_size=0, mlp_ratio=2
                (norm1): LayerNorm((16,), eps=1e-05, elementwise_affine=True)
                (attn): WindowAttention(
                  dim=16, window_size=(3, 3), num_heads=4
                  (qkv): Linear(in_features=16, out_features=48, bias=True)
                  (attn_drop): Dropout(p=0.0, inplace=False)
                  (proj): Linear(in_features=16, out_features=16, bias=True)
                  (proj_drop): Dropout(p=0.0, inplace=False)
                  (softmax): Softmax(dim=-1)
                )
                (drop_path): DropPath()
                (norm2): LayerNorm((16,), eps=1e-05, elementwise_affine=True)
                (mlp): Mlp(
                  (fc1): Linear(in_features=16, out_features=32, bias=True)
                  (act): GELU()
                  (fc2): Linear(in_features=32, out_features=16, bias=True)
                  (drop): Dropout(p=0.0, inplace=False)
                )
              )
              (1): SwinTransformerBlock(
                dim=16, input_resolution=(96, 96), num_heads=4, window_size=3, shift_size=1, mlp_ratio=2
                (norm1): LayerNorm((16,), eps=1e-05, elementwise_affine=True)
                (attn): WindowAttention(
                  dim=16, window_size=(3, 3), num_heads=4
                  (qkv): Linear(in_features=16, out_features=48, bias=True)
                  (attn_drop): Dropout(p=0.0, inplace=False)
                  (proj): Linear(in_features=16, out_features=16, bias=True)
                  (proj_drop): Dropout(p=0.0, inplace=False)
                  (softmax): Softmax(dim=-1)
                )
                (drop_path): DropPath()
                (norm2): LayerNorm((16,), eps=1e-05, elementwise_affine=True)
                (mlp): Mlp(
                  (fc1): Linear(in_features=16, out_features=32, bias=True)
                  (act): GELU()
                  (fc2): Linear(in_features=32, out_features=16, bias=True)
                  (drop): Dropout(p=0.0, inplace=False)
                )
              )
              (2): SwinTransformerBlock(
                dim=16, input_resolution=(96, 96), num_heads=4, window_size=3, shift_size=0, mlp_ratio=2
                (norm1): LayerNorm((16,), eps=1e-05, elementwise_affine=True)
                (attn): WindowAttention(
                  dim=16, window_size=(3, 3), num_heads=4
                  (qkv): Linear(in_features=16, out_features=48, bias=True)
                  (attn_drop): Dropout(p=0.0, inplace=False)
                  (proj): Linear(in_features=16, out_features=16, bias=True)
                  (proj_drop): Dropout(p=0.0, inplace=False)
                  (softmax): Softmax(dim=-1)
                )
                (drop_path): DropPath()
                (norm2): LayerNorm((16,), eps=1e-05, elementwise_affine=True)
                (mlp): Mlp(
                  (fc1): Linear(in_features=16, out_features=32, bias=True)
                  (act): GELU()
                  (fc2): Linear(in_features=32, out_features=16, bias=True)
                  (drop): Dropout(p=0.0, inplace=False)
                )
              )
              (3): SwinTransformerBlock(
                dim=16, input_resolution=(96, 96), num_heads=4, window_size=3, shift_size=1, mlp_ratio=2
                (norm1): LayerNorm((16,), eps=1e-05, elementwise_affine=True)
                (attn): WindowAttention(
                  dim=16, window_size=(3, 3), num_heads=4
                  (qkv): Linear(in_features=16, out_features=48, bias=True)
                  (attn_drop): Dropout(p=0.0, inplace=False)
                  (proj): Linear(in_features=16, out_features=16, bias=True)
                  (proj_drop): Dropout(p=0.0, inplace=False)
                  (softmax): Softmax(dim=-1)
                )
                (drop_path): DropPath()
                (norm2): LayerNorm((16,), eps=1e-05, elementwise_affine=True)
                (mlp): Mlp(
                  (fc1): Linear(in_features=16, out_features=32, bias=True)
                  (act): GELU()
                  (fc2): Linear(in_features=32, out_features=16, bias=True)
                  (drop): Dropout(p=0.0, inplace=False)
                )
              )
              (4): SwinTransformerBlock(
                dim=16, input_resolution=(96, 96), num_heads=4, window_size=3, shift_size=0, mlp_ratio=2
                (norm1): LayerNorm((16,), eps=1e-05, elementwise_affine=True)
                (attn): WindowAttention(
                  dim=16, window_size=(3, 3), num_heads=4
                  (qkv): Linear(in_features=16, out_features=48, bias=True)
                  (attn_drop): Dropout(p=0.0, inplace=False)
                  (proj): Linear(in_features=16, out_features=16, bias=True)
                  (proj_drop): Dropout(p=0.0, inplace=False)
                  (softmax): Softmax(dim=-1)
                )
                (drop_path): DropPath()
                (norm2): LayerNorm((16,), eps=1e-05, elementwise_affine=True)
                (mlp): Mlp(
                  (fc1): Linear(in_features=16, out_features=32, bias=True)
                  (act): GELU()
                  (fc2): Linear(in_features=32, out_features=16, bias=True)
                  (drop): Dropout(p=0.0, inplace=False)
                )
              )
              (5): SwinTransformerBlock(
                dim=16, input_resolution=(96, 96), num_heads=4, window_size=3, shift_size=1, mlp_ratio=2
                (norm1): LayerNorm((16,), eps=1e-05, elementwise_affine=True)
                (attn): WindowAttention(
                  dim=16, window_size=(3, 3), num_heads=4
                  (qkv): Linear(in_features=16, out_features=48, bias=True)
                  (attn_drop): Dropout(p=0.0, inplace=False)
                  (proj): Linear(in_features=16, out_features=16, bias=True)
                  (proj_drop): Dropout(p=0.0, inplace=False)
                  (softmax): Softmax(dim=-1)
                )
                (drop_path): DropPath()
                (norm2): LayerNorm((16,), eps=1e-05, elementwise_affine=True)
                (mlp): Mlp(
                  (fc1): Linear(in_features=16, out_features=32, bias=True)
                  (act): GELU()
                  (fc2): Linear(in_features=32, out_features=16, bias=True)
                  (drop): Dropout(p=0.0, inplace=False)
                )
              )
            )
          )
          (conv): Conv2d(16, 16, kernel_size=(3, 3), stride=(1, 1), padding=(1, 1))
          (patch_embed): PatchEmbed()
          (patch_unembed): PatchUnEmbed()
        )
        (2): RSTB(
          (residual_group): BasicLayer(
            dim=16, input_resolution=(96, 96), depth=6
            (blocks): ModuleList(
              (0): SwinTransformerBlock(
                dim=16, input_resolution=(96, 96), num_heads=4, window_size=3, shift_size=0, mlp_ratio=2
                (norm1): LayerNorm((16,), eps=1e-05, elementwise_affine=True)
                (attn): WindowAttention(
                  dim=16, window_size=(3, 3), num_heads=4
                  (qkv): Linear(in_features=16, out_features=48, bias=True)
                  (attn_drop): Dropout(p=0.0, inplace=False)
                  (proj): Linear(in_features=16, out_features=16, bias=True)
                  (proj_drop): Dropout(p=0.0, inplace=False)
                  (softmax): Softmax(dim=-1)
                )
                (drop_path): DropPath()
                (norm2): LayerNorm((16,), eps=1e-05, elementwise_affine=True)
                (mlp): Mlp(
                  (fc1): Linear(in_features=16, out_features=32, bias=True)
                  (act): GELU()
                  (fc2): Linear(in_features=32, out_features=16, bias=True)
                  (drop): Dropout(p=0.0, inplace=False)
                )
              )
              (1): SwinTransformerBlock(
                dim=16, input_resolution=(96, 96), num_heads=4, window_size=3, shift_size=1, mlp_ratio=2
                (norm1): LayerNorm((16,), eps=1e-05, elementwise_affine=True)
                (attn): WindowAttention(
                  dim=16, window_size=(3, 3), num_heads=4
                  (qkv): Linear(in_features=16, out_features=48, bias=True)
                  (attn_drop): Dropout(p=0.0, inplace=False)
                  (proj): Linear(in_features=16, out_features=16, bias=True)
                  (proj_drop): Dropout(p=0.0, inplace=False)
                  (softmax): Softmax(dim=-1)
                )
                (drop_path): DropPath()
                (norm2): LayerNorm((16,), eps=1e-05, elementwise_affine=True)
                (mlp): Mlp(
                  (fc1): Linear(in_features=16, out_features=32, bias=True)
                  (act): GELU()
                  (fc2): Linear(in_features=32, out_features=16, bias=True)
                  (drop): Dropout(p=0.0, inplace=False)
                )
              )
              (2): SwinTransformerBlock(
                dim=16, input_resolution=(96, 96), num_heads=4, window_size=3, shift_size=0, mlp_ratio=2
                (norm1): LayerNorm((16,), eps=1e-05, elementwise_affine=True)
                (attn): WindowAttention(
                  dim=16, window_size=(3, 3), num_heads=4
                  (qkv): Linear(in_features=16, out_features=48, bias=True)
                  (attn_drop): Dropout(p=0.0, inplace=False)
                  (proj): Linear(in_features=16, out_features=16, bias=True)
                  (proj_drop): Dropout(p=0.0, inplace=False)
                  (softmax): Softmax(dim=-1)
                )
                (drop_path): DropPath()
                (norm2): LayerNorm((16,), eps=1e-05, elementwise_affine=True)
                (mlp): Mlp(
                  (fc1): Linear(in_features=16, out_features=32, bias=True)
                  (act): GELU()
                  (fc2): Linear(in_features=32, out_features=16, bias=True)
                  (drop): Dropout(p=0.0, inplace=False)
                )
              )
              (3): SwinTransformerBlock(
                dim=16, input_resolution=(96, 96), num_heads=4, window_size=3, shift_size=1, mlp_ratio=2
                (norm1): LayerNorm((16,), eps=1e-05, elementwise_affine=True)
                (attn): WindowAttention(
                  dim=16, window_size=(3, 3), num_heads=4
                  (qkv): Linear(in_features=16, out_features=48, bias=True)
                  (attn_drop): Dropout(p=0.0, inplace=False)
                  (proj): Linear(in_features=16, out_features=16, bias=True)
                  (proj_drop): Dropout(p=0.0, inplace=False)
                  (softmax): Softmax(dim=-1)
                )
                (drop_path): DropPath()
                (norm2): LayerNorm((16,), eps=1e-05, elementwise_affine=True)
                (mlp): Mlp(
                  (fc1): Linear(in_features=16, out_features=32, bias=True)
                  (act): GELU()
                  (fc2): Linear(in_features=32, out_features=16, bias=True)
                  (drop): Dropout(p=0.0, inplace=False)
                )
              )
              (4): SwinTransformerBlock(
                dim=16, input_resolution=(96, 96), num_heads=4, window_size=3, shift_size=0, mlp_ratio=2
                (norm1): LayerNorm((16,), eps=1e-05, elementwise_affine=True)
                (attn): WindowAttention(
                  dim=16, window_size=(3, 3), num_heads=4
                  (qkv): Linear(in_features=16, out_features=48, bias=True)
                  (attn_drop): Dropout(p=0.0, inplace=False)
                  (proj): Linear(in_features=16, out_features=16, bias=True)
                  (proj_drop): Dropout(p=0.0, inplace=False)
                  (softmax): Softmax(dim=-1)
                )
                (drop_path): DropPath()
                (norm2): LayerNorm((16,), eps=1e-05, elementwise_affine=True)
                (mlp): Mlp(
                  (fc1): Linear(in_features=16, out_features=32, bias=True)
                  (act): GELU()
                  (fc2): Linear(in_features=32, out_features=16, bias=True)
                  (drop): Dropout(p=0.0, inplace=False)
                )
              )
              (5): SwinTransformerBlock(
                dim=16, input_resolution=(96, 96), num_heads=4, window_size=3, shift_size=1, mlp_ratio=2
                (norm1): LayerNorm((16,), eps=1e-05, elementwise_affine=True)
                (attn): WindowAttention(
                  dim=16, window_size=(3, 3), num_heads=4
                  (qkv): Linear(in_features=16, out_features=48, bias=True)
                  (attn_drop): Dropout(p=0.0, inplace=False)
                  (proj): Linear(in_features=16, out_features=16, bias=True)
                  (proj_drop): Dropout(p=0.0, inplace=False)
                  (softmax): Softmax(dim=-1)
                )
                (drop_path): DropPath()
                (norm2): LayerNorm((16,), eps=1e-05, elementwise_affine=True)
                (mlp): Mlp(
                  (fc1): Linear(in_features=16, out_features=32, bias=True)
                  (act): GELU()
                  (fc2): Linear(in_features=32, out_features=16, bias=True)
                  (drop): Dropout(p=0.0, inplace=False)
                )
              )
            )
          )
          (conv): Conv2d(16, 16, kernel_size=(3, 3), stride=(1, 1), padding=(1, 1))
          (patch_embed): PatchEmbed()
          (patch_unembed): PatchUnEmbed()
        )
        (3): RSTB(
          (residual_group): BasicLayer(
            dim=16, input_resolution=(96, 96), depth=6
            (blocks): ModuleList(
              (0): SwinTransformerBlock(
                dim=16, input_resolution=(96, 96), num_heads=4, window_size=3, shift_size=0, mlp_ratio=2
                (norm1): LayerNorm((16,), eps=1e-05, elementwise_affine=True)
                (attn): WindowAttention(
                  dim=16, window_size=(3, 3), num_heads=4
                  (qkv): Linear(in_features=16, out_features=48, bias=True)
                  (attn_drop): Dropout(p=0.0, inplace=False)
                  (proj): Linear(in_features=16, out_features=16, bias=True)
                  (proj_drop): Dropout(p=0.0, inplace=False)
                  (softmax): Softmax(dim=-1)
                )
                (drop_path): DropPath()
                (norm2): LayerNorm((16,), eps=1e-05, elementwise_affine=True)
                (mlp): Mlp(
                  (fc1): Linear(in_features=16, out_features=32, bias=True)
                  (act): GELU()
                  (fc2): Linear(in_features=32, out_features=16, bias=True)
                  (drop): Dropout(p=0.0, inplace=False)
                )
              )
              (1): SwinTransformerBlock(
                dim=16, input_resolution=(96, 96), num_heads=4, window_size=3, shift_size=1, mlp_ratio=2
                (norm1): LayerNorm((16,), eps=1e-05, elementwise_affine=True)
                (attn): WindowAttention(
                  dim=16, window_size=(3, 3), num_heads=4
                  (qkv): Linear(in_features=16, out_features=48, bias=True)
                  (attn_drop): Dropout(p=0.0, inplace=False)
                  (proj): Linear(in_features=16, out_features=16, bias=True)
                  (proj_drop): Dropout(p=0.0, inplace=False)
                  (softmax): Softmax(dim=-1)
                )
                (drop_path): DropPath()
                (norm2): LayerNorm((16,), eps=1e-05, elementwise_affine=True)
                (mlp): Mlp(
                  (fc1): Linear(in_features=16, out_features=32, bias=True)
                  (act): GELU()
                  (fc2): Linear(in_features=32, out_features=16, bias=True)
                  (drop): Dropout(p=0.0, inplace=False)
                )
              )
              (2): SwinTransformerBlock(
                dim=16, input_resolution=(96, 96), num_heads=4, window_size=3, shift_size=0, mlp_ratio=2
                (norm1): LayerNorm((16,), eps=1e-05, elementwise_affine=True)
                (attn): WindowAttention(
                  dim=16, window_size=(3, 3), num_heads=4
                  (qkv): Linear(in_features=16, out_features=48, bias=True)
                  (attn_drop): Dropout(p=0.0, inplace=False)
                  (proj): Linear(in_features=16, out_features=16, bias=True)
                  (proj_drop): Dropout(p=0.0, inplace=False)
                  (softmax): Softmax(dim=-1)
                )
                (drop_path): DropPath()
                (norm2): LayerNorm((16,), eps=1e-05, elementwise_affine=True)
                (mlp): Mlp(
                  (fc1): Linear(in_features=16, out_features=32, bias=True)
                  (act): GELU()
                  (fc2): Linear(in_features=32, out_features=16, bias=True)
                  (drop): Dropout(p=0.0, inplace=False)
                )
              )
              (3): SwinTransformerBlock(
                dim=16, input_resolution=(96, 96), num_heads=4, window_size=3, shift_size=1, mlp_ratio=2
                (norm1): LayerNorm((16,), eps=1e-05, elementwise_affine=True)
                (attn): WindowAttention(
                  dim=16, window_size=(3, 3), num_heads=4
                  (qkv): Linear(in_features=16, out_features=48, bias=True)
                  (attn_drop): Dropout(p=0.0, inplace=False)
                  (proj): Linear(in_features=16, out_features=16, bias=True)
                  (proj_drop): Dropout(p=0.0, inplace=False)
                  (softmax): Softmax(dim=-1)
                )
                (drop_path): DropPath()
                (norm2): LayerNorm((16,), eps=1e-05, elementwise_affine=True)
                (mlp): Mlp(
                  (fc1): Linear(in_features=16, out_features=32, bias=True)
                  (act): GELU()
                  (fc2): Linear(in_features=32, out_features=16, bias=True)
                  (drop): Dropout(p=0.0, inplace=False)
                )
              )
              (4): SwinTransformerBlock(
                dim=16, input_resolution=(96, 96), num_heads=4, window_size=3, shift_size=0, mlp_ratio=2
                (norm1): LayerNorm((16,), eps=1e-05, elementwise_affine=True)
                (attn): WindowAttention(
                  dim=16, window_size=(3, 3), num_heads=4
                  (qkv): Linear(in_features=16, out_features=48, bias=True)
                  (attn_drop): Dropout(p=0.0, inplace=False)
                  (proj): Linear(in_features=16, out_features=16, bias=True)
                  (proj_drop): Dropout(p=0.0, inplace=False)
                  (softmax): Softmax(dim=-1)
                )
                (drop_path): DropPath()
                (norm2): LayerNorm((16,), eps=1e-05, elementwise_affine=True)
                (mlp): Mlp(
                  (fc1): Linear(in_features=16, out_features=32, bias=True)
                  (act): GELU()
                  (fc2): Linear(in_features=32, out_features=16, bias=True)
                  (drop): Dropout(p=0.0, inplace=False)
                )
              )
              (5): SwinTransformerBlock(
                dim=16, input_resolution=(96, 96), num_heads=4, window_size=3, shift_size=1, mlp_ratio=2
                (norm1): LayerNorm((16,), eps=1e-05, elementwise_affine=True)
                (attn): WindowAttention(
                  dim=16, window_size=(3, 3), num_heads=4
                  (qkv): Linear(in_features=16, out_features=48, bias=True)
                  (attn_drop): Dropout(p=0.0, inplace=False)
                  (proj): Linear(in_features=16, out_features=16, bias=True)
                  (proj_drop): Dropout(p=0.0, inplace=False)
                  (softmax): Softmax(dim=-1)
                )
                (drop_path): DropPath()
                (norm2): LayerNorm((16,), eps=1e-05, elementwise_affine=True)
                (mlp): Mlp(
                  (fc1): Linear(in_features=16, out_features=32, bias=True)
                  (act): GELU()
                  (fc2): Linear(in_features=32, out_features=16, bias=True)
                  (drop): Dropout(p=0.0, inplace=False)
                )
              )
            )
          )
          (conv): Conv2d(16, 16, kernel_size=(3, 3), stride=(1, 1), padding=(1, 1))
          (patch_embed): PatchEmbed()
          (patch_unembed): PatchUnEmbed()
        )
      )
      (norm): LayerNorm((16,), eps=1e-05, elementwise_affine=True)
      (conv_after_body): Conv2d(16, 16, kernel_size=(3, 3), stride=(1, 1), padding=(1, 1))
      (conv_before_upsample): Sequential(
        (0): Conv2d(16, 64, kernel_size=(3, 3), stride=(1, 1), padding=(1, 1))
        (1): LeakyReLU(negative_slope=0.01, inplace=True)
      )
      (upsample): Upsample(
        (0): Conv2d(64, 256, kernel_size=(3, 3), stride=(1, 1), padding=(1, 1))
        (1): PixelShuffle(upscale_factor=2)
      )
      (conv_last): Conv2d(64, 16, kernel_size=(3, 3), stride=(1, 1), padding=(1, 1))
    )
    (m_up3): Sequential(
      (0): ConvTranspose2d(64, 64, kernel_size=(2, 2), stride=(2, 2), bias=False)
      (1): ResBlock(
        (res): Sequential(
          (0): Conv2d(64, 64, kernel_size=(3, 3), stride=(1, 1), padding=(1, 1), bias=False)
          (1): ReLU(inplace=True)
          (2): Conv2d(64, 64, kernel_size=(3, 3), stride=(1, 1), padding=(1, 1), bias=False)
        )
      )
      (2): ResBlock(
        (res): Sequential(
          (0): Conv2d(64, 64, kernel_size=(3, 3), stride=(1, 1), padding=(1, 1), bias=False)
          (1): ReLU(inplace=True)
          (2): Conv2d(64, 64, kernel_size=(3, 3), stride=(1, 1), padding=(1, 1), bias=False)
        )
      )
    )
    (m_up2): Sequential(
      (0): ConvTranspose2d(64, 32, kernel_size=(2, 2), stride=(2, 2), bias=False)
      (1): ResBlock(
        (res): Sequential(
          (0): Conv2d(32, 32, kernel_size=(3, 3), stride=(1, 1), padding=(1, 1), bias=False)
          (1): ReLU(inplace=True)
          (2): Conv2d(32, 32, kernel_size=(3, 3), stride=(1, 1), padding=(1, 1), bias=False)
        )
      )
      (2): ResBlock(
        (res): Sequential(
          (0): Conv2d(32, 32, kernel_size=(3, 3), stride=(1, 1), padding=(1, 1), bias=False)
          (1): ReLU(inplace=True)
          (2): Conv2d(32, 32, kernel_size=(3, 3), stride=(1, 1), padding=(1, 1), bias=False)
        )
      )
    )
    (m_up1): Sequential(
      (0): ConvTranspose2d(32, 16, kernel_size=(2, 2), stride=(2, 2), bias=False)
      (1): ResBlock(
        (res): Sequential(
          (0): Conv2d(16, 16, kernel_size=(3, 3), stride=(1, 1), padding=(1, 1), bias=False)
          (1): ReLU(inplace=True)
          (2): Conv2d(16, 16, kernel_size=(3, 3), stride=(1, 1), padding=(1, 1), bias=False)
        )
      )
      (2): ResBlock(
        (res): Sequential(
          (0): Conv2d(16, 16, kernel_size=(3, 3), stride=(1, 1), padding=(1, 1), bias=False)
          (1): ReLU(inplace=True)
          (2): Conv2d(16, 16, kernel_size=(3, 3), stride=(1, 1), padding=(1, 1), bias=False)
        )
      )
    )
    (m_tail): Conv2d(16, 3, kernel_size=(3, 3), stride=(1, 1), padding=(1, 1), bias=False)
  )
  (h): HyPaNet(
    (mlp): Sequential(
      (0): Conv2d(2, 32, kernel_size=(1, 1), stride=(1, 1))
      (1): ReLU(inplace=True)
      (2): Conv2d(32, 32, kernel_size=(1, 1), stride=(1, 1))
      (3): ReLU(inplace=True)
      (4): Conv2d(32, 12, kernel_size=(1, 1), stride=(1, 1))
      (5): Softplus(beta=1, threshold=20)
    )
  )
)

22-05-10 21:41:24.941 : 
 |  mean  |  min   |  max   |  std   || shape               
 | -0.002 | -0.084 |  0.102 |  0.033 | torch.Size([16, 4, 3, 3]) || p.m_head.weight
 | -0.000 | -0.054 |  0.048 |  0.017 | torch.Size([16, 16, 3, 3]) || p.m_down1.0.res.0.weight
 | -0.000 | -0.056 |  0.054 |  0.017 | torch.Size([16, 16, 3, 3]) || p.m_down1.0.res.2.weight
…
