…
t excessive worker creation might get DataLoader running slow or even freeze, lower the worker number to avoid potential slowness/freeze if necessary.
  cpuset_checked))
Dataset [DatasetUSRNet - test_dataset] is created.
train_loader length  1150
test_loader length  68
Initialization method [orthogonal + uniform], gain is [0.20]
Initialization method [orthogonal + uniform], gain is [0.20]
Training model [ModelPlain4] is created.
Copying model for E ...
22-05-10 21:55:19.085 : 
Networks name: USRNet_ST
Params number: 2204204
Net structure:
USRNet_ST(
  (d): DataNet()
  (p): ResUNet(
    (m_head): Conv2d(4, 16, kernel_size=(3, 3), stride=(1, 1), padding=(1, 1), bias=False)
    (m_down1): Sequential(
      (0): ResBlock(
        (res): Sequential(
          (0): Conv2d(16, 16, kernel_size=(3, 3), stride=(1, 1), padding=(1, 1), bias=False)
          (1): ReLU(inplace=True)
          (2): Conv2d(16, 16, kernel_size=(3, 3), stride=(1, 1), padding=(1, 1), bias=False)
        )
      )
      (1): ResBlock(
        (res): Sequential(
          (0): Conv2d(16, 16, kernel_size=(3, 3), stride=(1, 1), padding=(1, 1), bias=False)
          (1): ReLU(inplace=True)
          (2): Conv2d(16, 16, kernel_size=(3, 3), stride=(1, 1), padding=(1, 1), bias=False)
        )
      )
      (2): Conv2d(16, 32, kernel_size=(2, 2), stride=(2, 2), bias=False)
    )
    (m_down2): Sequential(
      (0): ResBlock(
        (res): Sequential(
          (0): Conv2d(32, 32, kernel_size=(3, 3), stride=(1, 1), padding=(1, 1), bias=False)
          (1): ReLU(inplace=True)
          (2): Conv2d(32, 32, kernel_size=(3, 3), stride=(1, 1), padding=(1, 1), bias=False)
        )
      )
      (1): ResBlock(
        (res): Sequential(
          (0): Conv2d(32, 32, kernel_size=(3, 3), stride=(1, 1), padding=(1, 1), bias=False)
          (1): ReLU(inplace=True)
          (2): Conv2d(32, 32, kernel_size=(3, 3), stride=(1, 1), padding=(1, 1), bias=False)
        )
      )
      (2): Conv2d(32, 64, kernel_size=(2, 2), stride=(2, 2), bias=False)
    )
    (m_down3): Sequential(
      (0): ResBlock(
        (res): Sequential(
          (0): Conv2d(64, 64, kernel_size=(3, 3), stride=(1, 1), padding=(1, 1), bias=False)
          (1): ReLU(inplace=True)
          (2): Conv2d(64, 64, kernel_size=(3, 3), stride=(1, 1), padding=(1, 1), bias=False)
        )
      )
      (1): ResBlock(
        (res): Sequential(
          (0): Conv2d(64, 64, kernel_size=(3, 3), stride=(1, 1), padding=(1, 1), bias=False)
          (1): ReLU(inplace=True)
          (2): Conv2d(64, 64, kernel_size=(3, 3), stride=(1, 1), padding=(1, 1), bias=False)
        )
      )
      (2): Conv2d(64, 64, kernel_size=(2, 2), stride=(2, 2), bias=False)
    )
    (sw_res1): SwinIR(
      (conv_first): Conv2d(64, 64, kernel_size=(3, 3), stride=(1, 1), padding=(1, 1))
      (patch_embed): PatchEmbed(
        (norm): LayerNorm((64,), eps=1e-05, elementwise_affine=True)
      )
      (patch_unembed): PatchUnEmbed()
      (pos_drop): Dropout(p=0.0, inplace=False)
      (layers): ModuleList(
        (0): RSTB(
          (residual_group): BasicLayer(
            dim=64, input_resolution=(12, 12), depth=4
            (blocks): ModuleList(
              (0): SwinTransformerBlock(
                dim=64, input_resolution=(12, 12), num_heads=4, window_size=3, shift_size=0, mlp_ratio=2
                (norm1): LayerNorm((64,), eps=1e-05, elementwise_affine=True)
                (attn): WindowAttention(
                  dim=64, window_size=(3, 3), num_heads=4
                  (qkv): Linear(in_features=64, out_features=192, bias=True)
                  (attn_drop): Dropout(p=0.0, inplace=False)
                  (proj): Linear(in_features=64, out_features=64, bias=True)
                  (proj_drop): Dropout(p=0.0, inplace=False)
                  (softmax): Softmax(dim=-1)
                )
                (drop_path): Identity()
                (norm2): LayerNorm((64,), eps=1e-05, elementwise_affine=True)
                (mlp): Mlp(
                  (fc1): Linear(in_features=64, out_features=128, bias=True)
                  (act): GELU()
                  (fc2): Linear(in_features=128, out_features=64, bias=True)
                  (drop): Dropout(p=0.0, inplace=False)
                )
              )
              (1): SwinTransformerBlock(
                dim=64, input_resolution=(12, 12), num_heads=4, window_size=3, shift_size=1, mlp_ratio=2
                (norm1): LayerNorm((64,), eps=1e-05, elementwise_affine=True)
                (attn): WindowAttention(
                  dim=64, window_size=(3, 3), num_heads=4
                  (qkv): Linear(in_features=64, out_features=192, bias=True)
                  (attn_drop): Dropout(p=0.0, inplace=False)
                  (proj): Linear(in_features=64, out_features=64, bias=True)
                  (proj_drop): Dropout(p=0.0, inplace=False)
                  (softmax): Softmax(dim=-1)
                )
                (drop_path): DropPath()
                (norm2): LayerNorm((64,), eps=1e-05, elementwise_affine=True)
                (mlp): Mlp(
                  (fc1): Linear(in_features=64, out_features=128, bias=True)
                  (act): GELU()
                  (fc2): Linear(in_features=128, out_features=64, bias=True)
                  (drop): Dropout(p=0.0, inplace=False)
                )
              )
              (2): SwinTransformerBlock(
                dim=64, input_resolution=(12, 12), num_heads=4, window_size=3, shift_size=0, mlp_ratio=2
                (norm1): LayerNorm((64,), eps=1e-05, elementwise_affine=True)
                (attn): WindowAttention(
                  dim=64, window_size=(3, 3), num_heads=4
                  (qkv): Linear(in_features=64, out_features=192, bias=True)
                  (attn_drop): Dropout(p=0.0, inplace=False)
                  (proj): Linear(in_features=64, out_features=64, bias=True)
                  (proj_drop): Dropout(p=0.0, inplace=False)
                  (softmax): Softmax(dim=-1)
                )
                (drop_path): DropPath()
                (norm2): LayerNorm((64,), eps=1e-05, elementwise_affine=True)
                (mlp): Mlp(
                  (fc1): Linear(in_features=64, out_features=128, bias=True)
                  (act): GELU()
                  (fc2): Linear(in_features=128, out_features=64, bias=True)
                  (drop): Dropout(p=0.0, inplace=False)
                )
              )
              (3): SwinTransformerBlock(
                dim=64, input_resolution=(12, 12), num_heads=4, window_size=3, shift_size=1, mlp_ratio=2
                (norm1): LayerNorm((64,), eps=1e-05, elementwise_affine=True)
                (attn): WindowAttention(
                  dim=64, window_size=(3, 3), num_heads=4
                  (qkv): Linear(in_features=64, out_features=192, bias=True)
                  (attn_drop): Dropout(p=0.0, inplace=False)
                  (proj): Linear(in_features=64, out_features=64, bias=True)
                  (proj_drop): Dropout(p=0.0, inplace=False)
                  (softmax): Softmax(dim=-1)
                )
                (drop_path): DropPath()
                (norm2): LayerNorm((64,), eps=1e-05, elementwise_affine=True)
                (mlp): Mlp(
                  (fc1): Linear(in_features=64, out_features=128, bias=True)
                  (act): GELU()
                  (fc2): Linear(in_features=128, out_features=64, bias=True)
                  (drop): Dropout(p=0.0, inplace=False)
                )
              )
            )
          )
          (conv): Conv2d(64, 64, kernel_size=(3, 3), stride=(1, 1), padding=(1, 1))
          (patch_embed): PatchEmbed()
          (patch_unembed): PatchUnEmbed()
        )
        (1): RSTB(
          (residual_group): BasicLayer(
            dim=64, input_resolution=(12, 12), depth=4
            (blocks): ModuleList(
              (0): SwinTransformerBlock(
                dim=64, input_resolution=(12, 12), num_heads=4, window_size=3, shift_size=0, mlp_ratio=2
                (norm1): LayerNorm((64,), eps=1e-05, elementwise_affine=True)
                (attn): WindowAttention(
                  dim=64, window_size=(3, 3), num_heads=4
                  (qkv): Linear(in_features=64, out_features=192, bias=True)
                  (attn_drop): Dropout(p=0.0, inplace=False)
                  (proj): Linear(in_features=64, out_features=64, bias=True)
                  (proj_drop): Dropout(p=0.0, inplace=False)
                  (softmax): Softmax(dim=-1)
                )
                (drop_path): DropPath()
                (norm2): LayerNorm((64,), eps=1e-05, elementwise_affine=True)
                (mlp): Mlp(
                  (fc1): Linear(in_features=64, out_features=128, bias=True)
                  (act): GELU()
                  (fc2): Linear(in_features=128, out_features=64, bias=True)
                  (drop): Dropout(p=0.0, inplace=False)
                )
              )
              (1): SwinTransformerBlock(
                dim=64, input_resolution=(12, 12), num_heads=4, window_size=3, shift_size=1, mlp_ratio=2
                (norm1): LayerNorm((64,), eps=1e-05, elementwise_affine=True)
                (attn): WindowAttention(
                  dim=64, window_size=(3, 3), num_heads=4
                  (qkv): Linear(in_features=64, out_features=192, bias=True)
                  (attn_drop): Dropout(p=0.0, inplace=False)
                  (proj): Linear(in_features=64, out_features=64, bias=True)
                  (proj_drop): Dropout(p=0.0, inplace=False)
                  (softmax): Softmax(dim=-1)
                )
                (drop_path): DropPath()
                (norm2): LayerNorm((64,), eps=1e-05, elementwise_affine=True)
                (mlp): Mlp(
                  (fc1): Linear(in_features=64, out_features=128, bias=True)
                  (act): GELU()
                  (fc2): Linear(in_features=128, out_features=64, bias=True)
                  (drop): Dropout(p=0.0, inplace=False)
                )
              )
              (2): SwinTransformerBlock(
                dim=64, input_resolution=(12, 12), num_heads=4, window_size=3, shift_size=0, mlp_ratio=2
                (norm1): LayerNorm((64,), eps=1e-05, elementwise_affine=True)
                (attn): WindowAttention(
                  dim=64, window_size=(3, 3), num_heads=4
                  (qkv): Linear(in_features=64, out_features=192, bias=True)
                  (attn_drop): Dropout(p=0.0, inplace=False)
                  (proj): Linear(in_features=64, out_features=64, bias=True)
                  (proj_drop): Dropout(p=0.0, inplace=False)
                  (softmax): Softmax(dim=-1)
                )
                (drop_path): DropPath()
                (norm2): LayerNorm((64,), eps=1e-05, elementwise_affine=True)
                (mlp): Mlp(
                  (fc1): Linear(in_features=64, out_features=128, bias=True)
                  (act): GELU()
                  (fc2): Linear(in_features=128, out_features=64, bias=True)
                  (drop): Dropout(p=0.0, inplace=False)
                )
              )
              (3): SwinTransformerBlock(
                dim=64, input_resolution=(12, 12), num_heads=4, window_size=3, shift_size=1, mlp_ratio=2
                (norm1): LayerNorm((64,), eps=1e-05, elementwise_affine=True)
                (attn): WindowAttention(
                  dim=64, window_size=(3, 3), num_heads=4
                  (qkv): Linear(in_features=64, out_features=192, bias=True)
                  (attn_drop): Dropout(p=0.0, inplace=False)
                  (proj): Linear(in_features=64, out_features=64, bias=True)
                  (proj_drop): Dropout(p=0.0, inplace=False)
                  (softmax): Softmax(dim=-1)
                )
                (drop_path): DropPath()
                (norm2): LayerNorm((64,), eps=1e-05, elementwise_affine=True)
                (mlp): Mlp(
                  (fc1): Linear(in_features=64, out_features=128, bias=True)
                  (act): GELU()
                  (fc2): Linear(in_features=128, out_features=64, bias=True)
                  (drop): Dropout(p=0.0, inplace=False)
                )
              )
            )
          )
          (conv): Conv2d(64, 64, kernel_size=(3, 3), stride=(1, 1), padding=(1, 1))
          (patch_embed): PatchEmbed()
          (patch_unembed): PatchUnEmbed()
        )
      )
      (norm): LayerNorm((64,), eps=1e-05, elementwise_affine=True)
      (conv_after_body): Conv2d(64, 64, kernel_size=(3, 3), stride=(1, 1), padding=(1, 1))
      (conv_before_upsample): Sequential(
        (0): Conv2d(64, 64, kernel_size=(3, 3), stride=(1, 1), padding=(1, 1))
        (1): LeakyReLU(negative_slope=0.01, inplace=True)
      )
      (upsample): Upsample(
        (0): Conv2d(64, 256, kernel_size=(3, 3), stride=(1, 1), padding=(1, 1))
        (1): PixelShuffle(upscale_factor=2)
      )
      (conv_last): Conv2d(64, 64, kernel_size=(3, 3), stride=(1, 1), padding=(1, 1))
    )
    (sw_res2): SwinIR(
      (conv_first): Conv2d(64, 64, kernel_size=(3, 3), stride=(1, 1), padding=(1, 1))
      (patch_embed): PatchEmbed(
        (norm): LayerNorm((64,), eps=1e-05, elementwise_affine=True)
      )
      (patch_unembed): PatchUnEmbed()
      (pos_drop): Dropout(p=0.0, inplace=False)
      (layers): ModuleList(
        (0): RSTB(
          (residual_group): BasicLayer(
            dim=64, input_resolution=(24, 24), depth=4
            (blocks): ModuleList(
              (0): SwinTransformerBlock(
                dim=64, input_resolution=(24, 24), num_heads=4, window_size=3, shift_size=0, mlp_ratio=2
                (norm1): LayerNorm((64,), eps=1e-05, elementwise_affine=True)
                (attn): WindowAttention(
                  dim=64, window_size=(3, 3), num_heads=4
                  (qkv): Linear(in_features=64, out_features=192, bias=True)
                  (attn_drop): Dropout(p=0.0, inplace=False)
                  (proj): Linear(in_features=64, out_features=64, bias=True)
                  (proj_drop): Dropout(p=0.0, inplace=False)
                  (softmax): Softmax(dim=-1)
                )
                (drop_path): Identity()
                (norm2): LayerNorm((64,), eps=1e-05, elementwise_affine=True)
                (mlp): Mlp(
                  (fc1): Linear(in_features=64, out_features=128, bias=True)
                  (act): GELU()
                  (fc2): Linear(in_features=128, out_features=64, bias=True)
                  (drop): Dropout(p=0.0, inplace=False)
                )
              )
              (1): SwinTransformerBlock(
                dim=64, input_resolution=(24, 24), num_heads=4, window_size=3, shift_size=1, mlp_ratio=2
                (norm1): LayerNorm((64,), eps=1e-05, elementwise_affine=True)
                (attn): WindowAttention(
                  dim=64, window_size=(3, 3), num_heads=4
                  (qkv): Linear(in_features=64, out_features=192, bias=True)
                  (attn_drop): Dropout(p=0.0, inplace=False)
                  (proj): Linear(in_features=64, out_features=64, bias=True)
                  (proj_drop): Dropout(p=0.0, inplace=False)
                  (softmax): Softmax(dim=-1)
                )
                (drop_path): DropPath()
                (norm2): LayerNorm((64,), eps=1e-05, elementwise_affine=True)
                (mlp): Mlp(
                  (fc1): Linear(in_features=64, out_features=128, bias=True)
                  (act): GELU()
                  (fc2): Linear(in_features=128, out_features=64, bias=True)
                  (drop): Dropout(p=0.0, inplace=False)
                )
              )
              (2): SwinTransformerBlock(
                dim=64, input_resolution=(24, 24), num_heads=4, window_size=3, shift_size=0, mlp_ratio=2
                (norm1): LayerNorm((64,), eps=1e-05, elementwise_affine=True)
                (attn): WindowAttention(
                  dim=64, window_size=(3, 3), num_heads=4
                  (qkv): Linear(in_features=64, out_features=192, bias=True)
                  (attn_drop): Dropout(p=0.0, inplace=False)
                  (proj): Linear(in_features=64, out_features=64, bias=True)
                  (proj_drop): Dropout(p=0.0, inplace=False)
                  (softmax): Softmax(dim=-1)
                )
                (drop_path): DropPath()
                (norm2): LayerNorm((64,), eps=1e-05, elementwise_affine=True)
                (mlp): Mlp(
                  (fc1): Linear(in_features=64, out_features=128, bias=True)
                  (act): GELU()
                  (fc2): Linear(in_features=128, out_features=64, bias=True)
                  (drop): Dropout(p=0.0, inplace=False)
                )
              )
              (3): SwinTransformerBlock(
                dim=64, input_resolution=(24, 24), num_heads=4, window_size=3, shift_size=1, mlp_ratio=2
                (norm1): LayerNorm((64,), eps=1e-05, elementwise_affine=True)
                (attn): WindowAttention(
                  dim=64, window_size=(3, 3), num_heads=4
                  (qkv): Linear(in_features=64, out_features=192, bias=True)
                  (attn_drop): Dropout(p=0.0, inplace=False)
                  (proj): Linear(in_features=64, out_features=64, bias=True)
                  (proj_drop): Dropout(p=0.0, inplace=False)
                  (softmax): Softmax(dim=-1)
                )
                (drop_path): DropPath()
                (norm2): LayerNorm((64,), eps=1e-05, elementwise_affine=True)
                (mlp): Mlp(
                  (fc1): Linear(in_features=64, out_features=128, bias=True)
                  (act): GELU()
                  (fc2): Linear(in_features=128, out_features=64, bias=True)
                  (drop): Dropout(p=0.0, inplace=False)
                )
              )
            )
          )
          (conv): Conv2d(64, 64, kernel_size=(3, 3), stride=(1, 1), padding=(1, 1))
          (patch_embed): PatchEmbed()
          (patch_unembed): PatchUnEmbed()
        )
        (1): RSTB(
          (residual_group): BasicLayer(
            dim=64, input_resolution=(24, 24), depth=4
            (blocks): ModuleList(
              (0): SwinTransformerBlock(
                dim=64, input_resolution=(24, 24), num_heads=4, window_size=3, shift_size=0, mlp_ratio=2
                (norm1): LayerNorm((64,), eps=1e-05, elementwise_affine=True)
                (attn): WindowAttention(
                  dim=64, window_size=(3, 3), num_heads=4
                  (qkv): Linear(in_features=64, out_features=192, bias=True)
                  (attn_drop): Dropout(p=0.0, inplace=False)
                  (proj): Linear(in_features=64, out_features=64, bias=True)
                  (proj_drop): Dropout(p=0.0, inplace=False)
                  (softmax): Softmax(dim=-1)
                )
                (drop_path): DropPath()
                (norm2): LayerNorm((64,), eps=1e-05, elementwise_affine=True)
                (mlp): Mlp(
                  (fc1): Linear(in_features=64, out_features=128, bias=True)
                  (act): GELU()
                  (fc2): Linear(in_features=128, out_features=64, bias=True)
                  (drop): Dropout(p=0.0, inplace=False)
                )
              )
              (1): SwinTransformerBlock(
                dim=64, input_resolution=(24, 24), num_heads=4, window_size=3, shift_size=1, mlp_ratio=2
                (norm1): LayerNorm((64,), eps=1e-05, elementwise_affine=True)
                (attn): WindowAttention(
                  dim=64, window_size=(3, 3), num_heads=4
                  (qkv): Linear(in_features=64, out_features=192, bias=True)
                  (attn_drop): Dropout(p=0.0, inplace=False)
                  (proj): Linear(in_features=64, out_features=64, bias=True)
                  (proj_drop): Dropout(p=0.0, inplace=False)
                  (softmax): Softmax(dim=-1)
                )
                (drop_path): DropPath()
                (norm2): LayerNorm((64,), eps=1e-05, elementwise_affine=True)
                (mlp): Mlp(
                  (fc1): Linear(in_features=64, out_features=128, bias=True)
                  (act): GELU()
                  (fc2): Linear(in_features=128, out_features=64, bias=True)
                  (drop): Dropout(p=0.0, inplace=False)
                )
              )
              (2): SwinTransformerBlock(
                dim=64, input_resolution=(24, 24), num_heads=4, window_size=3, shift_size=0, mlp_ratio=2
                (norm1): LayerNorm((64,), eps=1e-05, elementwise_affine=True)
                (attn): WindowAttention(
                  dim=64, window_size=(3, 3), num_heads=4
                  (qkv): Linear(in_features=64, out_features=192, bias=True)
                  (attn_drop): Dropout(p=0.0, inplace=False)
                  (proj): Linear(in_features=64, out_features=64, bias=True)
                  (proj_drop): Dropout(p=0.0, inplace=False)
                  (softmax): Softmax(dim=-1)
                )
                (drop_path): DropPath()
                (norm2): LayerNorm((64,), eps=1e-05, elementwise_affine=True)
                (mlp): Mlp(
                  (fc1): Linear(in_features=64, out_features=128, bias=True)
                  (act): GELU()
                  (fc2): Linear(in_features=128, out_features=64, bias=True)
                  (drop): Dropout(p=0.0, inplace=False)
                )
              )
              (3): SwinTransformerBlock(
                dim=64, input_resolution=(24, 24), num_heads=4, window_size=3, shift_size=1, mlp_ratio=2
                (norm1): LayerNorm((64,), eps=1e-05, elementwise_affine=True)
                (attn): WindowAttention(
                  dim=64, window_size=(3, 3), num_heads=4
                  (qkv): Linear(in_features=64, out_features=192, bias=True)
                  (attn_drop): Dropout(p=0.0, inplace=False)
                  (proj): Linear(in_features=64, out_features=64, bias=True)
                  (proj_drop): Dropout(p=0.0, inplace=False)
                  (softmax): Softmax(dim=-1)
                )
                (drop_path): DropPath()
                (norm2): LayerNorm((64,), eps=1e-05, elementwise_affine=True)
                (mlp): Mlp(
                  (fc1): Linear(in_features=64, out_features=128, bias=True)
                  (act): GELU()
                  (fc2): Linear(in_features=128, out_features=64, bias=True)
                  (drop): Dropout(p=0.0, inplace=False)
                )
              )
            )
          )
          (conv): Conv2d(64, 64, kernel_size=(3, 3), stride=(1, 1), padding=(1, 1))
          (patch_embed): PatchEmbed()
          (patch_unembed): PatchUnEmbed()
        )
      )
      (norm): LayerNorm((64,), eps=1e-05, elementwise_affine=True)
      (conv_after_body): Conv2d(64, 64, kernel_size=(3, 3), stride=(1, 1), padding=(1, 1))
      (conv_before_upsample): Sequential(
        (0): Conv2d(64, 64, kernel_size=(3, 3), stride=(1, 1), padding=(1, 1))
        (1): LeakyReLU(negative_slope=0.01, inplace=True)
      )
      (upsample): Upsample(
        (0): Conv2d(64, 256, kernel_size=(3, 3), stride=(1, 1), padding=(1, 1))
        (1): PixelShuffle(upscale_factor=2)
      )
      (conv_last): Conv2d(64, 64, kernel_size=(3, 3), stride=(1, 1), padding=(1, 1))
    )
    (sw_res3): SwinIR(
      (conv_first): Conv2d(32, 32, kernel_size=(3, 3), stride=(1, 1), padding=(1, 1))
      (patch_embed): PatchEmbed(
        (norm): LayerNorm((32,), eps=1e-05, elementwise_affine=True)
      )
      (patch_unembed): PatchUnEmbed()
      (pos_drop): Dropout(p=0.0, inplace=False)
      (layers): ModuleList(
        (0): RSTB(
          (residual_group): BasicLayer(
            dim=32, input_resolution=(48, 48), depth=4
            (blocks): ModuleList(
              (0): SwinTransformerBlock(
                dim=32, input_resolution=(48, 48), num_heads=4, window_size=3, shift_size=0, mlp_ratio=2
                (norm1): LayerNorm((32,), eps=1e-05, elementwise_affine=True)
                (attn): WindowAttention(
                  dim=32, window_size=(3, 3), num_heads=4
                  (qkv): Linear(in_features=32, out_features=96, bias=True)
                  (attn_drop): Dropout(p=0.0, inplace=False)
                  (proj): Linear(in_features=32, out_features=32, bias=True)
                  (proj_drop): Dropout(p=0.0, inplace=False)
                  (softmax): Softmax(dim=-1)
                )
                (drop_path): Identity()
                (norm2): LayerNorm((32,), eps=1e-05, elementwise_affine=True)
                (mlp): Mlp(
                  (fc1): Linear(in_features=32, out_features=64, bias=True)
                  (act): GELU()
                  (fc2): Linear(in_features=64, out_features=32, bias=True)
                  (drop): Dropout(p=0.0, inplace=False)
                )
              )
              (1): SwinTransformerBlock(
                dim=32, input_resolution=(48, 48), num_heads=4, window_size=3, shift_size=1, mlp_ratio=2
                (norm1): LayerNorm((32,), eps=1e-05, elementwise_affine=True)
                (attn): WindowAttention(
                  dim=32, window_size=(3, 3), num_heads=4
                  (qkv): Linear(in_features=32, out_features=96, bias=True)
                  (attn_drop): Dropout(p=0.0, inplace=False)
                  (proj): Linear(in_features=32, out_features=32, bias=True)
                  (proj_drop): Dropout(p=0.0, inplace=False)
                  (softmax): Softmax(dim=-1)
                )
                (drop_path): DropPath()
                (norm2): LayerNorm((32,), eps=1e-05, elementwise_affine=True)
                (mlp): Mlp(
                  (fc1): Linear(in_features=32, out_features=64, bias=True)
                  (act): GELU()
                  (fc2): Linear(in_features=64, out_features=32, bias=True)
                  (drop): Dropout(p=0.0, inplace=False)
                )
              )
              (2): SwinTransformerBlock(
                dim=32, input_resolution=(48, 48), num_heads=4, window_size=3, shift_size=0, mlp_ratio=2
                (norm1): LayerNorm((32,), eps=1e-05, elementwise_affine=True)
                (attn): WindowAttention(
                  dim=32, window_size=(3, 3), num_heads=4
                  (qkv): Linear(in_features=32, out_features=96, bias=True)
                  (attn_drop): Dropout(p=0.0, inplace=False)
                  (proj): Linear(in_features=32, out_features=32, bias=True)
                  (proj_drop): Dropout(p=0.0, inplace=False)
                  (softmax): Softmax(dim=-1)
                )
                (drop_path): DropPath()
                (norm2): LayerNorm((32,), eps=1e-05, elementwise_affine=True)
                (mlp): Mlp(
                  (fc1): Linear(in_features=32, out_features=64, bias=True)
                  (act): GELU()
                  (fc2): Linear(in_features=64, out_features=32, bias=True)
                  (drop): Dropout(p=0.0, inplace=False)
                )
              )
              (3): SwinTransformerBlock(
                dim=32, input_resolution=(48, 48), num_heads=4, window_size=3, shift_size=1, mlp_ratio=2
                (norm1): LayerNorm((32,), eps=1e-05, elementwise_affine=True)
                (attn): WindowAttention(
                  dim=32, window_size=(3, 3), num_heads=4
                  (qkv): Linear(in_features=32, out_features=96, bias=True)
                  (attn_drop): Dropout(p=0.0, inplace=False)
                  (proj): Linear(in_features=32, out_features=32, bias=True)
                  (proj_drop): Dropout(p=0.0, inplace=False)
                  (softmax): Softmax(dim=-1)
                )
                (drop_path): DropPath()
                (norm2): LayerNorm((32,), eps=1e-05, elementwise_affine=True)
                (mlp): Mlp(
                  (fc1): Linear(in_features=32, out_features=64, bias=True)
                  (act): GELU()
                  (fc2): Linear(in_features=64, out_features=32, bias=True)
                  (drop): Dropout(p=0.0, inplace=False)
                )
              )
            )
          )
          (conv): Conv2d(32, 32, kernel_size=(3, 3), stride=(1, 1), padding=(1, 1))
          (patch_embed): PatchEmbed()
          (patch_unembed): PatchUnEmbed()
        )
        (1): RSTB(
          (residual_group): BasicLayer(
            dim=32, input_resolution=(48, 48), depth=4
            (blocks): ModuleList(
              (0): SwinTransformerBlock(
                dim=32, input_resolution=(48, 48), num_heads=4, window_size=3, shift_size=0, mlp_ratio=2
                (norm1): LayerNorm((32,), eps=1e-05, elementwise_affine=True)
                (attn): WindowAttention(
                  dim=32, window_size=(3, 3), num_heads=4
                  (qkv): Linear(in_features=32, out_features=96, bias=True)
                  (attn_drop): Dropout(p=0.0, inplace=False)
                  (proj): Linear(in_features=32, out_features=32, bias=True)
                  (proj_drop): Dropout(p=0.0, inplace=False)
                  (softmax): Softmax(dim=-1)
                )
                (drop_path): DropPath()
                (norm2): LayerNorm((32,), eps=1e-05, elementwise_affine=True)
                (mlp): Mlp(
                  (fc1): Linear(in_features=32, out_features=64, bias=True)
                  (act): GELU()
                  (fc2): Linear(in_features=64, out_features=32, bias=True)
                  (drop): Dropout(p=0.0, inplace=False)
                )
              )
              (1): SwinTransformerBlock(
                dim=32, input_resolution=(48, 48), num_heads=4, window_size=3, shift_size=1, mlp_ratio=2
                (norm1): LayerNorm((32,), eps=1e-05, elementwise_affine=True)
                (attn): WindowAttention(
                  dim=32, window_size=(3, 3), num_heads=4
                  (qkv): Linear(in_features=32, out_features=96, bias=True)
                  (attn_drop): Dropout(p=0.0, inplace=False)
                  (proj): Linear(in_features=32, out_features=32, bias=True)
                  (proj_drop): Dropout(p=0.0, inplace=False)
                  (softmax): Softmax(dim=-1)
                )
                (drop_path): DropPath()
                (norm2): LayerNorm((32,), eps=1e-05, elementwise_affine=True)
                (mlp): Mlp(
                  (fc1): Linear(in_features=32, out_features=64, bias=True)
                  (act): GELU()
                  (fc2): Linear(in_features=64, out_features=32, bias=True)
                  (drop): Dropout(p=0.0, inplace=False)
                )
              )
              (2): SwinTransformerBlock(
                dim=32, input_resolution=(48, 48), num_heads=4, window_size=3, shift_size=0, mlp_ratio=2
                (norm1): LayerNorm((32,), eps=1e-05, elementwise_affine=True)
                (attn): WindowAttention(
                  dim=32, window_size=(3, 3), num_heads=4
                  (qkv): Linear(in_features=32, out_features=96, bias=True)
                  (attn_drop): Dropout(p=0.0, inplace=False)
                  (proj): Linear(in_features=32, out_features=32, bias=True)
                  (proj_drop): Dropout(p=0.0, inplace=False)
                  (softmax): Softmax(dim=-1)
                )
                (drop_path): DropPath()
                (norm2): LayerNorm((32,), eps=1e-05, elementwise_affine=True)
                (mlp): Mlp(
                  (fc1): Linear(in_features=32, out_features=64, bias=True)
                  (act): GELU()
                  (fc2): Linear(in_features=64, out_features=32, bias=True)
                  (drop): Dropout(p=0.0, inplace=False)
                )
              )
              (3): SwinTransformerBlock(
                dim=32, input_resolution=(48, 48), num_heads=4, window_size=3, shift_size=1, mlp_ratio=2
                (norm1): LayerNorm((32,), eps=1e-05, elementwise_affine=True)
                (attn): WindowAttention(
                  dim=32, window_size=(3, 3), num_heads=4
                  (qkv): Linear(in_features=32, out_features=96, bias=True)
                  (attn_drop): Dropout(p=0.0, inplace=False)
                  (proj): Linear(in_features=32, out_features=32, bias=True)
                  (proj_drop): Dropout(p=0.0, inplace=False)
                  (softmax): Softmax(dim=-1)
                )
                (drop_path): DropPath()
                (norm2): LayerNorm((32,), eps=1e-05, elementwise_affine=True)
                (mlp): Mlp(
                  (fc1): Linear(in_features=32, out_features=64, bias=True)
                  (act): GELU()
                  (fc2): Linear(in_features=64, out_features=32, bias=True)
                  (drop): Dropout(p=0.0, inplace=False)
                )
              )
            )
          )
          (conv): Conv2d(32, 32, kernel_size=(3, 3), stride=(1, 1), padding=(1, 1))
          (patch_embed): PatchEmbed()
          (patch_unembed): PatchUnEmbed()
        )
      )
      (norm): LayerNorm((32,), eps=1e-05, elementwise_affine=True)
      (conv_after_body): Conv2d(32, 32, kernel_size=(3, 3), stride=(1, 1), padding=(1, 1))
      (conv_before_upsample): Sequential(
        (0): Conv2d(32, 64, kernel_size=(3, 3), stride=(1, 1), padding=(1, 1))
        (1): LeakyReLU(negative_slope=0.01, inplace=True)
      )
      (upsample): Upsample(
        (0): Conv2d(64, 256, kernel_size=(3, 3), stride=(1, 1), padding=(1, 1))
        (1): PixelShuffle(upscale_factor=2)
      )
      (conv_last): Conv2d(64, 32, kernel_size=(3, 3), stride=(1, 1), padding=(1, 1))
    )
    (sw_res4): SwinIR(
      (conv_first): Conv2d(16, 16, kernel_size=(3, 3), stride=(1, 1), padding=(1, 1))
      (patch_embed): PatchEmbed(
        (norm): LayerNorm((16,), eps=1e-05, elementwise_affine=True)
      )
      (patch_unembed): PatchUnEmbed()
      (pos_drop): Dropout(p=0.0, inplace=False)
      (layers): ModuleList(
        (0): RSTB(
          (residual_group): BasicLayer(
            dim=16, input_resolution=(96, 96), depth=4
            (blocks): ModuleList(
              (0): SwinTransformerBlock(
                dim=16, input_resolution=(96, 96), num_heads=4, window_size=3, shift_size=0, mlp_ratio=2
                (norm1): LayerNorm((16,), eps=1e-05, elementwise_affine=True)
                (attn): WindowAttention(
                  dim=16, window_size=(3, 3), num_heads=4
                  (qkv): Linear(in_features=16, out_features=48, bias=True)
                  (attn_drop): Dropout(p=0.0, inplace=False)
                  (proj): Linear(in_features=16, out_features=16, bias=True)
                  (proj_drop): Dropout(p=0.0, inplace=False)
                  (softmax): Softmax(dim=-1)
                )
                (drop_path): Identity()
                (norm2): LayerNorm((16,), eps=1e-05, elementwise_affine=True)
                (mlp): Mlp(
                  (fc1): Linear(in_features=16, out_features=32, bias=True)
                  (act): GELU()
                  (fc2): Linear(in_features=32, out_features=16, bias=True)
                  (drop): Dropout(p=0.0, inplace=False)
                )
              )
              (1): SwinTransformerBlock(
                dim=16, input_resolution=(96, 96), num_heads=4, window_size=3, shift_size=1, mlp_ratio=2
                (norm1): LayerNorm((16,), eps=1e-05, elementwise_affine=True)
                (attn): WindowAttention(
                  dim=16, window_size=(3, 3), num_heads=4
                  (qkv): Linear(in_features=16, out_features=48, bias=True)
                  (attn_drop): Dropout(p=0.0, inplace=False)
                  (proj): Linear(in_features=16, out_features=16, bias=True)
                  (proj_drop): Dropout(p=0.0, inplace=False)
                  (softmax): Softmax(dim=-1)
                )
                (drop_path): DropPath()
                (norm2): LayerNorm((16,), eps=1e-05, elementwise_affine=True)
                (mlp): Mlp(
                  (fc1): Linear(in_features=16, out_features=32, bias=True)
                  (act): GELU()
                  (fc2): Linear(in_features=32, out_features=16, bias=True)
                  (drop): Dropout(p=0.0, inplace=False)
                )
              )
              (2): SwinTransformerBlock(
                dim=16, input_resolution=(96, 96), num_heads=4, window_size=3, shift_size=0, mlp_ratio=2
                (norm1): LayerNorm((16,), eps=1e-05, elementwise_affine=True)
                (attn): WindowAttention(
                  dim=16, window_size=(3, 3), num_heads=4
                  (qkv): Linear(in_features=16, out_features=48, bias=True)
                  (attn_drop): Dropout(p=0.0, inplace=False)
                  (proj): Linear(in_features=16, out_features=16, bias=True)
                  (proj_drop): Dropout(p=0.0, inplace=False)
                  (softmax): Softmax(dim=-1)
                )
                (drop_path): DropPath()
                (norm2): LayerNorm((16,), eps=1e-05, elementwise_affine=True)
                (mlp): Mlp(
                  (fc1): Linear(in_features=16, out_features=32, bias=True)
                  (act): GELU()
                  (fc2): Linear(in_features=32, out_features=16, bias=True)
                  (drop): Dropout(p=0.0, inplace=False)
                )
              )
              (3): SwinTransformerBlock(
                dim=16, input_resolution=(96, 96), num_heads=4, window_size=3, shift_size=1, mlp_ratio=2
                (norm1): LayerNorm((16,), eps=1e-05, elementwise_affine=True)
                (attn): WindowAttention(
                  dim=16, window_size=(3, 3), num_heads=4
                  (qkv): Linear(in_features=16, out_features=48, bias=True)
                  (attn_drop): Dropout(p=0.0, inplace=False)
                  (proj): Linear(in_features=16, out_features=16, bias=True)
                  (proj_drop): Dropout(p=0.0, inplace=False)
                  (softmax): Softmax(dim=-1)
                )
                (drop_path): DropPath()
                (norm2): LayerNorm((16,), eps=1e-05, elementwise_affine=True)
                (mlp): Mlp(
                  (fc1): Linear(in_features=16, out_features=32, bias=True)
                  (act): GELU()
                  (fc2): Linear(in_features=32, out_features=16, bias=True)
                  (drop): Dropout(p=0.0, inplace=False)
                )
              )
            )
          )
          (conv): Conv2d(16, 16, kernel_size=(3, 3), stride=(1, 1), padding=(1, 1))
          (patch_embed): PatchEmbed()
          (patch_unembed): PatchUnEmbed()
        )
        (1): RSTB(
          (residual_group): BasicLayer(
            dim=16, input_resolution=(96, 96), depth=4
            (blocks): ModuleList(
              (0): SwinTransformerBlock(
                dim=16, input_resolution=(96, 96), num_heads=4, window_size=3, shift_size=0, mlp_ratio=2
                (norm1): LayerNorm((16,), eps=1e-05, elementwise_affine=True)
                (attn): WindowAttention(
                  dim=16, window_size=(3, 3), num_heads=4
                  (qkv): Linear(in_features=16, out_features=48, bias=True)
                  (attn_drop): Dropout(p=0.0, inplace=False)
                  (proj): Linear(in_features=16, out_features=16, bias=True)
                  (proj_drop): Dropout(p=0.0, inplace=False)
                  (softmax): Softmax(dim=-1)
                )
                (drop_path): DropPath()
                (norm2): LayerNorm((16,), eps=1e-05, elementwise_affine=True)
                (mlp): Mlp(
                  (fc1): Linear(in_features=16, out_features=32, bias=True)
                  (act): GELU()
                  (fc2): Linear(in_features=32, out_features=16, bias=True)
                  (drop): Dropout(p=0.0, inplace=False)
                )
              )
              (1): SwinTransformerBlock(
                dim=16, input_resolution=(96, 96), num_heads=4, window_size=3, shift_size=1, mlp_ratio=2
                (norm1): LayerNorm((16,), eps=1e-05, elementwise_affine=True)
                (attn): WindowAttention(
                  dim=16, window_size=(3, 3), num_heads=4
                  (qkv): Linear(in_features=16, out_features=48, bias=True)
                  (attn_drop): Dropout(p=0.0, inplace=False)
                  (proj): Linear(in_features=16, out_features=16, bias=True)
                  (proj_drop): Dropout(p=0.0, inplace=False)
                  (softmax): Softmax(dim=-1)
                )
                (drop_path): DropPath()
                (norm2): LayerNorm((16,), eps=1e-05, elementwise_affine=True)
                (mlp): Mlp(
                  (fc1): Linear(in_features=16, out_features=32, bias=True)
                  (act): GELU()
                  (fc2): Linear(in_features=32, out_features=16, bias=True)
                  (drop): Dropout(p=0.0, inplace=False)
                )
              )
              (2): SwinTransformerBlock(
                dim=16, input_resolution=(96, 96), num_heads=4, window_size=3, shift_size=0, mlp_ratio=2
                (norm1): LayerNorm((16,), eps=1e-05, elementwise_affine=True)
                (attn): WindowAttention(
                  dim=16, window_size=(3, 3), num_heads=4
                  (qkv): Linear(in_features=16, out_features=48, bias=True)
                  (attn_drop): Dropout(p=0.0, inplace=False)
                  (proj): Linear(in_features=16, out_features=16, bias=True)
                  (proj_drop): Dropout(p=0.0, inplace=False)
                  (softmax): Softmax(dim=-1)
                )
                (drop_path): DropPath()
                (norm2): LayerNorm((16,), eps=1e-05, elementwise_affine=True)
                (mlp): Mlp(
                  (fc1): Linear(in_features=16, out_features=32, bias=True)
                  (act): GELU()
                  (fc2): Linear(in_features=32, out_features=16, bias=True)
                  (drop): Dropout(p=0.0, inplace=False)
                )
              )
              (3): SwinTransformerBlock(
                dim=16, input_resolution=(96, 96), num_heads=4, window_size=3, shift_size=1, mlp_ratio=2
                (norm1): LayerNorm((16,), eps=1e-05, elementwise_affine=True)
                (attn): WindowAttention(
                  dim=16, window_size=(3, 3), num_heads=4
                  (qkv): Linear(in_features=16, out_features=48, bias=True)
                  (attn_drop): Dropout(p=0.0, inplace=False)
                  (proj): Linear(in_features=16, out_features=16, bias=True)
                  (proj_drop): Dropout(p=0.0, inplace=False)
                  (softmax): Softmax(dim=-1)
                )
                (drop_path): DropPath()
                (norm2): LayerNorm((16,), eps=1e-05, elementwise_affine=True)
                (mlp): Mlp(
                  (fc1): Linear(in_features=16, out_features=32, bias=True)
                  (act): GELU()
                  (fc2): Linear(in_features=32, out_features=16, bias=True)
                  (drop): Dropout(p=0.0, inplace=False)
                )
              )
            )
          )
          (conv): Conv2d(16, 16, kernel_size=(3, 3), stride=(1, 1), padding=(1, 1))
          (patch_embed): PatchEmbed()
          (patch_unembed): PatchUnEmbed()
        )
      )
      (norm): LayerNorm((16,), eps=1e-05, elementwise_affine=True)
      (conv_after_body): Conv2d(16, 16, kernel_size=(3, 3), stride=(1, 1), padding=(1, 1))
      (conv_before_upsample): Sequential(
        (0): Conv2d(16, 64, kernel_size=(3, 3), stride=(1, 1), padding=(1, 1))
        (1): LeakyReLU(negative_slope=0.01, inplace=True)
      )
      (upsample): Upsample(
        (0): Conv2d(64, 256, kernel_size=(3, 3), stride=(1, 1), padding=(1, 1))
        (1): PixelShuffle(upscale_factor=2)
      )
      (conv_last): Conv2d(64, 16, kernel_size=(3, 3), stride=(1, 1), padding=(1, 1))
    )
    (m_up3): Sequential(
      (0): ConvTranspose2d(64, 64, kernel_size=(2, 2), stride=(2, 2), bias=False)
      (1): ResBlock(
        (res): Sequential(
          (0): Conv2d(64, 64, kernel_size=(3, 3), stride=(1, 1), padding=(1, 1), bias=False)
          (1): ReLU(inplace=True)
          (2): Conv2d(64, 64, kernel_size=(3, 3), stride=(1, 1), padding=(1, 1), bias=False)
        )
      )
      (2): ResBlock(
        (res): Sequential(
          (0): Conv2d(64, 64, kernel_size=(3, 3), stride=(1, 1), padding=(1, 1), bias=False)
          (1): ReLU(inplace=True)
          (2): Conv2d(64, 64, kernel_size=(3, 3), stride=(1, 1), padding=(1, 1), bias=False)
        )
      )
    )
    (m_up2): Sequential(
      (0): ConvTranspose2d(64, 32, kernel_size=(2, 2), stride=(2, 2), bias=False)
      (1): ResBlock(
        (res): Sequential(
          (0): Conv2d(32, 32, kernel_size=(3, 3), stride=(1, 1), padding=(1, 1), bias=False)
          (1): ReLU(inplace=True)
          (2): Conv2d(32, 32, kernel_size=(3, 3), stride=(1, 1), padding=(1, 1), bias=False)
        )
      )
      (2): ResBlock(
        (res): Sequential(
          (0): Conv2d(32, 32, kernel_size=(3, 3), stride=(1, 1), padding=(1, 1), bias=False)
          (1): ReLU(inplace=True)
          (2): Conv2d(32, 32, kernel_size=(3, 3), stride=(1, 1), padding=(1, 1), bias=False)
        )
      )
    )
    (m_up1): Sequential(
      (0): ConvTranspose2d(32, 16, kernel_size=(2, 2), stride=(2, 2), bias=False)
      (1): ResBlock(
        (res): Sequential(
          (0): Conv2d(16, 16, kernel_size=(3, 3), stride=(1, 1), padding=(1, 1), bias=False)
          (1): ReLU(inplace=True)
          (2): Conv2d(16, 16, kernel_size=(3, 3), stride=(1, 1), padding=(1, 1), bias=False)
        )
      )
      (2): ResBlock(
        (res): Sequential(
          (0): Conv2d(16, 16, kernel_size=(3, 3), stride=(1, 1), padding=(1, 1), bias=False)
          (1): ReLU(inplace=True)
          (2): Conv2d(16, 16, kernel_size=(3, 3), stride=(1, 1), padding=(1, 1), bias=False)
        )
      )
    )
    (m_tail): Conv2d(16, 3, kernel_size=(3, 3), stride=(1, 1), padding=(1, 1), bias=False)
  )
  (h): HyPaNet(
    (mlp): Sequential(
      (0): Conv2d(2, 32, kernel_size=(1, 1), stride=(1, 1))
      (1): ReLU(inplace=True)
      (2): Conv2d(32, 32, kernel_size=(1, 1), stride=(1, 1))
      (3): ReLU(inplace=True)
      (4): Conv2d(32, 12, kernel_size=(1, 1), stride=(1, 1))
      (5): Softplus(beta=1, threshold=20)
    )
  )
)

22-05-10 21:55:19.172 : 
 |  mean  |  min   |  max   |  std   || shape               
 | -0.001 | -0.113 |  0.090 |  0.033 | torch.Size([16, 4, 3, 3]) || p.m_head.weight
 | -0.001 | -0.068 |  0.062 |  0.017 | torch.Size([16, 16, 3, 3]) || p.m_down1.0.res.0.weight
 |  0.000 | -0.057 |  0.052 |  0.017 | torch.Size([16, 16, 3, 3]) || p.m_down1.0.res.2.weight
…
